Assets/goodMoveToGoal-208817.onnx (onnx, 75062 bytes, 7 tensors)

network_body._body_endoder.seq_layers.0.weight f4 [128, 6]
000000 b0 2e 70 3d ed 77 ae be b3 9e 46 be 16 d9 a5 3e
       0.058638275 -0.3407587 -0.19396476 0.32392186
000010 c4 d6 0f 3e 11 0d ad be ad 76 b6 3d 26 bb 93 bf
       0.1404677 -0.3379903 0.08909354 -1.1541488
000020 63 78 64 3f 94 e9 d3 bd 09 73 10 bf 48 35 a3 3e
       0.89246196 -0.10347286 -0.5642553 0.31876588
000030 62 b7 c5 be cc 61 4e bf 1e 26 6f 3e 36 98 15 3f
       -0.38616472 -0.80617976 0.23354384 0.5843538
000040 fc e7 62 bf 26 5a d0 be b7 bd 58 3d 46 7e 2a 3f
       -0.8863523 -0.40693778 0.0529153 0.6659893
000050 e8 af 89 3d 0d ea 5b 3e 16 26 13 3b 19 a2 05 3e
       0.067230046 0.21476002 0.002245312 0.13050117
000060 32 b6 37 3e 45 00 ed be 7b ae 25 bf 49 52 09 3f
       0.17940596 -0.46289268 -0.6471936 0.5364118
000070 9c 3c 9f 3e 76 20 d1 3e df 0c d4 bd 6b d4 80 3e
       0.3110093 0.40845078 -0.103540175 0.25162062
000080 94 67 1e bd 40 01 c2 be 6f ad ac 3e 95 d5 27 be
       -0.038673 -0.3789158 0.3372607 -0.16390069
000090 06 87 24 bf 7c a8 bf 3d 63 56 a0 3e 68 08 c3 3e
       -0.6426853 0.09358308 0.31315908 0.3809235
0000a0 34 76 88 bd 63 1c 06 3f 0d bc 1c bf 88 27 f2 be
       -0.066631705 0.52387065 -0.6122444 -0.47295785
0000b0 cf e2 1f be 04 b8 1b bf 38 bc 3a 3e 77 97 5a be
       -0.15613864 -0.6082766 0.18235862 -0.21346842
0000c0 3c 77 97 3e 9c 96 83 be 76 90 24 be e7 35 6e 3e
       0.29583156 -0.25700843 -0.16070732 0.2326275
0000d0 0d c6 c9 3e 98 23 ee 3e 7e 8d ed be b4 03 3b be
       0.39408913 0.4651153 -0.46397012 -0.18263131
0000e0 64 ae 89 bd 7f 39 b0 be 9c e3 01 bd 16 00 cc 3e
       -0.067227155 -0.34418866 -0.031711206 0.39843816
0000f0 59 82 c1 be 4d c7 0f be 68 f3 29 3f 67 b0 a2 be
       -0.3779476 -0.14040871 0.66387033 -0.3177521
000100 9f bd 56 3c 66 c8 ae bd 1a 06 73 be d1 30 9d be
       0.013106733 -0.08534317 -0.23732796 -0.30701306
000110 e9 50 e8 3e e4 f8 56 3e 89 a3 08 be e3 18 c0 3e
       0.4537423 0.20993382 -0.13343634 0.37518987
000120 9b d9 f6 bc ea 42 59 bd 2d a5 98 be 6b 2b 69 3e
       -0.03013306 -0.05304233 -0.2981352 0.22770469
000130 91 8b 3a bc 22 7b 7a bd 0c 5f f7 be ae 25 96 bd
       -0.011385814 -0.061152585 -0.48314703 -0.073314056
000140 2e 64 74 3c 88 ef ee 3e 58 ef 5f be 54 a1 09 3f
       0.014916463 0.46667123 -0.21868646 0.5376179
000150 15 f5 e5 3e c2 4a 74 3e e2 e7 d8 3e 5e d5 48 3f
       0.44913545 0.23856643 0.42364413 0.7845057
000160 49 11 6f 3f ea 16 68 3e 9c c7 87 3e d3 90 cf bd
       0.9338575 0.22664991 0.26519477 -0.10135045
000170 92 9d 04 be e8 f4 04 3f 25 fa 96 3d e0 46 05 3e
       -0.12950733 0.519362 0.0737193 0.13015318
000180 b2 cf d2 be 18 0e 94 be bb 8d d2 be 10 ff 53 be
       -0.41174084 -0.28917003 -0.41123757 -0.20702767
000190 fd aa 1f 3f c8 22 43 3e f8 30 b5 be a4 c6 1b 3f
       0.6237028 0.19056237 -0.35388923 0.60849977
0001a0 43 e2 86 bc 59 a4 be 3d f5 39 ba be c5 ed c9 3e
       -0.016465312 0.093086906 -0.36372343 0.39439216
0001b0 5c 1a 08 bf ae 0a 52 bf f0 60 93 3e bd 01 b6 3d
       -0.5316522 -0.82047546 0.28784895 0.0888705
0001c0 4a a3 67 bd 8f 62 1e 3e da a5 4b be 48 17 01 3f
       -0.05655221 0.15467285 -0.19887486 0.5042615
0001d0 28 e5 46 3f 15 9c 97 3e eb e4 11 3e 79 55 9f 3e
       0.77693415 0.2961127 0.14247482 0.31119898
0001e0 87 0c 93 bd f8 de 43 3e 16 e7 36 bf ff 79 36 3e
       -0.07180124 0.19128025 -0.7144636 0.17819975
0001f0 ea aa 38 bf dc 3f 2b 3e 16 0e f6 bd aa 29 00 bf
       -0.72135794 0.16723579 -0.120144054 -0.50063574
000200 2f 6e 9b be c0 44 f3 3d a6 a0 28 be 75 d3 48 3f
       -0.303575 0.118783474 -0.16467533 0.7844766
000210 a1 20 10 bd 0d 13 20 3f 97 77 b6 3e 26 26 2f be
       -0.035187367 0.6252907 0.35638115 -0.17104396
000220 42 8e aa 3e 6c c9 9f 3c 80 50 0d 3f 76 8b 4a bf
       0.3331166 0.019505225 0.5520096 -0.7911905
000230 83 6d c5 be 4f 38 91 be 12 dc 2a bf 5c 44 a8 be
       -0.38560113 -0.28363273 -0.6674205 -0.32864654
000240 92 b8 bc bd 62 f4 7a 3e ae 0e 04 3d 34 10 ca bc
       -0.092148915 0.24507287 0.032240562 -0.02466593
000250 c7 81 75 3e b3 7f 8c 3e e8 92 56 be 2b ea 06 bf
       0.23975287 0.27441177 -0.20954478 -0.5270106
000260 19 22 15 3e f7 6f 3c be 97 f6 a0 3e 0f 22 9d bb
       0.14563788 -0.18402086 0.31438133 -0.00479532
000270 38 80 ec be aa 88 ed 3e 4c 51 a4 3d fb 63 2d bf
       -0.46191573 0.4639333 0.08023319 -0.67730683
000280 46 39 b1 3d 6f 35 78 bc a6 73 06 bf 35 1c cc be
       0.08653502 -0.015149458 -0.52520216 -0.3986527
000290 ea 06 bd 3e 99 c1 6b 3e 45 ae 82 3e 39 bb 7a 3f
       0.36919338 0.2302307 0.25523582 0.9794193
0002a0 ce 2b 2b 3f b8 84 ca bd 0e 29 59 3e fa bc 96 3d
       0.66863716 -0.09888595 0.21207067 0.07360263
0002b0 2f 23 a1 3e 21 7d b6 3d ed 9c b1 bd b6 16 3b 3e
       0.31472155 0.08910585 -0.08672509 0.18270382
0002c0 d5 e9 55 bf 8f b9 f0 3e 57 f4 fe bd 5a 9d 07 be
       -0.83559924 0.4701657 -0.12448948 -0.13243619
0002d0 6c 10 97 3e 39 60 11 be 33 fe e1 3d 4f 8b a2 3c
       0.29504716 -0.14196862 0.11034813 0.019841818
0002e0 51 e7 8c 3e 13 53 94 be 98 25 d8 3e 8a fd f2 3e
       0.2752023 -0.2896963 0.42216182 0.4745906
0002f0 89 4e 06 bf c6 64 b6 3e a3 ba 76 bd 23 c7 ca bc
       -0.52463585 0.3562376 -0.060236584 -0.024753159
000300 db c8 1c 3f 1a b1 e5 3d f1 d7 7c bb 64 be ee 3e
       0.6124398 0.1121542 -0.003858086 0.46629632
000310 f8 09 14 3e 08 05 d3 3d 0b 5e 0b be f6 22 b4 3e
       0.14456928 0.10303694 -0.13610093 0.35182923
000320 25 b5 35 3f dd ff 99 bd 0f d2 19 bf 94 3c 41 bf
       0.7097953 -0.07519505 -0.6008615 -0.7548306
000330 13 fa cd be 3a 7c 88 be 52 2b 26 be 4c 76 86 3d
       -0.40229854 -0.26657277 -0.16227463 0.06565532
000340 db 44 45 bf c7 b3 3d 3f 45 c5 29 3f 2e 5e 69 3c
       -0.7705819 0.74102443 0.66316634 0.014243646
000350 bd 4d ea 3b be 39 83 bf 47 f7 df bb b4 81 93 bd
       0.0071503804 -1.0251997 -0.0068348977 -0.07202473
000360 f2 63 43 3f 5f bd 49 3f 41 a7 f1 be 59 e1 90 3e
       0.7632438 0.7880458 -0.47197917 0.28296927
000370 ca 92 15 3d 48 e4 92 3d f3 2e 24 3f 7c 9e 38 bf
       0.036516942 0.071724474 0.6413414 -0.7211683
000380 08 89 a7 bd 03 c9 1f be df ea 90 3e fe c7 af 3e
       -0.081804335 -0.15604024 0.28304192 0.3433227
000390 5e dd 1c 3f c6 e5 98 3e 83 aa b9 bd 9a 96 90 3e
       0.6127528 0.29862803 -0.09065726 0.282399
0003a0 e2 6b be be 78 68 11 3e 95 1a 17 bf e0 6e d4 3e
       -0.37191683 0.14200008 -0.59024936 0.4149084
0003b0 c1 27 5c 3d 92 94 e7 be 63 de 26 3f 60 71 06 be
       0.05374885 -0.45230538 0.65183085 -0.13129187
0003c0 ef d6 06 3f af 86 f8 3d d4 28 75 bf 33 d9 14 3e
       0.5267171 0.12135064 -0.95765424 0.1453598
0003d0 b7 00 55 be 71 16 66 be 43 fb 4c bf 26 01 62 be
       -0.20801054 -0.22469498 -0.80070895 -0.2207075
0003e0 6c a4 5f bd b5 c0 bd 3e e8 6e 0c 3c 3d 48 fc bc
       -0.054600164 0.37061086 0.008571364 -0.030796165
0003f0 4e 3c 2b 3d 11 c0 65 3e 3f b0 30 3c 7b 4a 14 3e
       0.041805558 0.22436549 0.010784208 0.14481537

network_body._body_endoder.seq_layers.0.bias f4 [128]
000000 ff b5 b9 3c 8d ee a2 3c 79 d4 2d 3d 2a eb e8 3c
       0.02266979 0.01988914 0.042438958 0.028432447
000010 7f 80 ac 3c e8 5b 97 3c e1 cf a2 3c 68 0f 8e bc
       0.021057365 0.018476442 0.019874515 -0.01734133
000020 52 ef 08 3d 42 0a 53 bc c5 2a a7 ba 19 1a d0 bb
       0.03343136 -0.012880864 -0.0012753835 -0.0063507673
000030 f4 79 72 3b 98 64 ca 3c 9b b6 27 bd 31 95 f5 bc
       0.003699896 0.02470617 -0.04094563 -0.029978367
000040 b0 3c c3 3c f3 e0 1f 3c 67 8c 9a 3b bd 3d 48 bc
       0.023832649 0.009758222 0.0047164443 -0.012221751
000050 3f 8a 95 bb 5f 79 82 ba 7d e4 df 3c 0d 08 6b 3c
       -0.0045635994 -0.0009954384 0.027330631 0.014345181
000060 4d 0f b1 bc 5b 7a ef 3c 0b 0d b3 3b 23 52 50 3b
       -0.021613741 0.029233148 0.0054642013 0.0031787239
000070 d1 f4 3a 3c 69 e4 f3 3b d5 62 32 bd eb ed 8e bc
       0.011410908 0.007443 -0.043551285 -0.017447433
000080 18 53 e3 bc 1d 7c 1d 3d 15 c6 bd 3c d7 d2 2b 3d
       -0.027749583 0.03844844 0.023165742 0.04194912
000090 89 79 82 bc c2 48 a2 3c bf 3c 82 3b c7 32 e2 3c
       -0.015927093 0.019810084 0.0039745267 0.027612103
0000a0 6c 23 a3 bc 81 4b f4 bb f6 a0 de bc 59 6e d5 3c
       -0.019914351 -0.00745529 -0.027176362 0.026053594
0000b0 c0 02 7a bc 0d f5 26 3d 10 69 f0 3c 52 78 0d 3c
       -0.015259445 0.040761042 0.029346973 0.008634644
0000c0 a8 47 bb 3c d4 a4 7c bb 9d cc f5 3a fa 18 a9 bc
       0.022861317 -0.0038550394 0.0018752996 -0.020641793
0000d0 59 15 79 3b 91 59 0a 3c 50 46 65 ba 1d 77 2a bc
       0.003800711 0.008444206 -0.0008746134 -0.010404375
0000e0 a2 8e ac 3c 79 26 98 bc 08 73 1b bc 2b a9 74 3c
       0.021064106 -0.018573033 -0.009487875 0.014932911
0000f0 fe 7e 94 3c e7 6c 52 3c a0 27 a8 3c 0a 6b a7 3c
       0.01812696 0.012843347 0.020526707 0.020436782
000100 a3 ef 5e 3b 5f 63 19 bb 97 f0 a4 3c 58 95 d4 3c
       0.0034017346 -0.0023405177 0.020134253 0.025950119
000110 0b e5 cf bc 48 ed da 3c 77 48 d9 3c 76 b1 87 bc
       -0.02537777 0.026724473 0.026523812 -0.016564112
000120 59 e1 28 3c ab b5 8d bc 51 73 f8 3b 09 78 48 bc
       0.010307633 -0.01729854 0.007582106 -0.01223565
000130 41 a7 96 3c 33 3d b1 bb 0c f0 fb bb 05 ea fc 39
       0.0183903 -0.005408907 -0.007688528 0.00048239544
000140 97 27 ac 3c a1 15 cf 3c fe ec 04 3d 40 49 f6 bc
       0.021014972 0.025278868 0.032452576 -0.030064225
000150 83 9e 8e 3c 9e ec 55 3c ca c8 b0 bc 40 20 34 3c
       0.017409569 0.013056902 -0.021580119 0.010994017
000160 63 2b 85 bc 80 49 cc 3c 3f 5c 7f 3c 56 7c 82 3c
       -0.01625604 0.024937391 0.015585958 0.015928429
000170 ea e7 89 bc 0b ca f5 3c b2 0c 7d 3c 71 98 cd 3c
       -0.016834218 0.030003568 0.015444921 0.025097104
000180 f1 c8 b2 3c 9c eb 03 3c 37 62 5c bc 49 04 33 bb
       0.021824332 0.008051779 -0.013451151 -0.0027315787
000190 43 31 2f 3c b5 f2 1f 3b f9 f2 f8 bc d6 de 66 3c
       0.010692897 0.002440614 -0.030389296 0.014091214
0001a0 22 fd c7 3c 00 d3 7e bc 45 56 b1 bc f6 04 b7 3b
       0.024412695 -0.015553236 -0.021647582 0.005585308
0001b0 60 82 03 bc 54 bf b2 3c 7f 05 38 3c 94 17 b8 bb
       -0.008026689 0.021819748 0.011231779 -0.005618045
0001c0 20 ab 84 bb e8 64 fa ba 24 5c 26 bc 4f dd fc 3c
       -0.00404872 -0.0019103559 -0.010153804 0.030867247
0001d0 2b f2 0d 3d d1 21 c2 3c c0 40 b1 bc a6 69 d1 3c
       0.034654777 0.023697766 -0.02163732 0.025563072
0001e0 54 0f da 3c 16 37 bb bc 62 97 cb 3c 54 e3 c5 3c
       0.026618637 -0.022853415 0.024852458 0.02415625
0001f0 16 34 8a bc 7c eb 9e bc e4 3b 8e 3c 70 ff a2 bb
       -0.01687054 -0.019399397 0.017362542 -0.004974298

network_body._body_endoder.seq_layers.2.weight f4 [128, 128]
000000 0e 57 26 bd 0c 32 11 3d 72 b0 e8 bc 14 a9 12 3d
       -0.040610366 0.03544812 -0.028404448 0.035805777
000010 7f 5e 8e bd 54 dd 13 3d 2a eb 85 3c 45 cd 03 be
       -0.069516174 0.036099747 0.016347487 -0.12871273
000020 26 be 88 bd 2b be b7 3c 4a 05 f7 3d 2e 00 cc 3c
       -0.06676893 0.022429546 0.12061556 0.02490243
000030 81 ed 16 3e 00 d7 f5 3d c3 bf fb 3d dd 9c f9 bd
       0.14739038 0.120038986 0.12292435 -0.121881224
000040 64 a0 0e bd cf 09 9d bd a3 c1 e0 3d 5b 77 42 3d
       -0.03482093 -0.076678865 0.10974433 0.047477107
000050 01 7b 28 3d bb 19 b0 bd 2f f9 10 3c cc a9 2b bc
       0.04113293 -0.08598658 0.0088484725 -0.010477494
000060 6c fe 3b bd 87 d3 15 3d ff 7d 41 3e 2e 8c f5 3c
       -0.045896932 0.03657868 0.1889572 0.02997407
000070 44 e4 c9 bd ae 3b 49 bd 0c bd 0a bd 55 da 80 bb
       -0.09857991 -0.04912918 -0.033871695 -0.003932277
000080 fc cc af bd 9e fd 8e 3d 08 43 0a 3d ac 71 89 be
       -0.085840195 0.069819674 0.033755332 -0.26844537
000090 79 7f 5d bd 42 0c b0 bd a3 57 ba bd 34 ac e7 3d
       -0.054076646 -0.08596088 -0.09098747 0.11312142
0000a0 51 b3 db 3d 92 00 29 3c 84 d0 42 be 61 b8 7c 3d
       0.10727561 0.010315077 -0.19024855 0.061699275
0000b0 9e 1b 03 3e b7 82 cc bd 16 f0 e3 bd 3a e9 45 3c
       0.12803504 -0.099858694 -0.11129777 0.012079531
0000c0 b8 76 73 3d ff f3 cc bd 9f 64 02 be 9b ab b5 3c
       0.05943939 -0.10007476 -0.12733696 0.022176554
0000d0 6f 8f 15 be d4 53 a2 3d 39 eb e1 bd 8c 9b 68 bd
       -0.14605497 0.07926145 -0.11031193 -0.056788966
0000e0 e0 0d b3 3d 56 67 48 bb 0c 0c 36 be 83 01 d9 3d
       0.08742881 -0.003057917 -0.17778033 0.105959915
0000f0 59 1c 39 bd 9f 25 20 be fa cb d4 bd f9 b9 11 bd
       -0.04519305 -0.15639351 -0.10390468 -0.035577748
000100 cd c9 3e 3e 60 ae da bd 57 b5 cd bd 45 3f 04 3e
       0.18631668 -0.10677791 -0.100443535 0.1291476
000110 a8 b6 2c bd cd f7 fe 3c 1f 94 71 3b b4 9a 7f 3c
       -0.042166382 0.03112402 0.0036861969 0.015600849
000120 fb 77 24 bd 30 ec 0d be 6e 3a 32 be 99 7c de 3c
       -0.040153485 -0.1385963 -0.17405102 0.027159022
000130 d2 21 b6 3d 18 c1 00 3c 7b 9e 5c bd 99 4d 0f 3e
       0.088931695 0.007858537 -0.053862076 0.13994445
000140 b5 76 d4 3b 8b b8 0c bd 21 80 2d 3e 56 ca c8 3d
       0.0064838775 -0.03435568 0.16943409 0.098042175
000150 5e 08 7f 3d fc ce ee 3a da 38 8a 3c 15 4a cf bd
       0.06226384 0.0018219645 0.016872812 -0.10121552
000160 27 71 8f 3d 40 43 f9 3d 36 da 9f 3d fd eb 45 bd
       0.07004004 0.1217103 0.07805292 -0.04832076
000170 97 9b 74 3d be fe 83 bd 91 5b 8e bd 5e 53 21 be
       0.059718695 -0.064450726 -0.06951059 -0.15754458
000180 20 d8 9e 3c d1 49 98 3d b2 45 b2 3d 15 a7 0b bd
       0.019390166 0.07435954 0.087046996 -0.03409489
000190 e5 ca a9 3c 30 24 69 3b dc 4c 3a 3d 90 be 36 3d
       0.02072663 0.0035574548 0.045483455 0.04461533
0001a0 bb 6e a6 3d 24 e4 6f be 02 4c 0a 3d 89 9c 57 3c
       0.08126589 -0.23426872 0.033763893 0.0131598795
0001b0 f4 79 8e bd a4 62 37 3e 81 0a ea 3d db e1 1a 3d
       -0.069568545 0.17908722 0.11427785 0.03781305
0001c0 46 1c 2a bb 42 7d 9f 3d 18 31 d4 3d 3b 0e 39 be
       -0.0025956794 0.07787563 0.103609264 -0.18071835
0001d0 a7 3d fd 3b 18 b2 10 bd 3a 42 eb bd 38 ce 8f bc
       0.007728297 -0.035326093 -0.11487241 -0.017554387
0001e0 2e 52 3c ba ab ee b6 bc 74 26 25 bd b0 22 43 bd
       -0.00071838766 -0.022330603 -0.040319875 -0.047640502
0001f0 15 4a 96 bc cc 5a 87 3d 58 52 84 bd 10 d0 9d bd
       -0.018345872 0.06609115 -0.06461018 -0.077057004
000200 c2 14 bb bd 33 51 b9 3d 76 7b 82 ba 69 93 1a 3e
       -0.091348186 0.09048691 -0.0009955007 0.15095295
000210 e6 d4 18 3c c6 8a e8 bc a0 3d 39 bc 0c 20 c0 3d
       0.009328103 -0.028386485 -0.011306196 0.093811125
000220 f3 bd a4 bc ed 6d 5a bc 05 91 8f 3d 72 41 08 3e
       -0.020110106 -0.013331872 0.07010082 0.13306215
000230 5e 67 42 bd 09 25 95 3d ee 7b 60 3e 65 37 0b be
       -0.04746186 0.072824545 0.21922275 -0.1359535
000240 1d 12 9f bd 37 64 2d bd 5b 1c cd 3c 97 b1 01 bd
       -0.07767127 -0.0423319 0.025037935 -0.031663503
000250 f0 7a 88 bd ad f4 6c bd 64 b4 24 be 30 ec a3 3d
       -0.066640735 -0.05785053 -0.16084439 0.080040336
000260 40 92 be bd 5d 97 8a 3c d9 59 55 3c 15 c0 96 bd
       -0.09305239 0.016917879 0.01302191 -0.073608555
000270 76 34 00 3d 66 12 8d bc 1e 25 82 bd 44 4b 37 bd
       0.03130003 -0.017220687 -0.06354736 -0.044749513
000280 e5 15 63 39 00 1c 16 bd a3 66 09 3b 54 c9 21 3d
       0.00021656563 -0.036647797 0.0020965717 0.039498642
000290 05 93 f3 3d 95 22 ff 3b 6d 2d f2 3c 0a d7 f1 bd
       0.11893276 0.007786105 0.029562676 -0.118085936
0002a0 05 89 c7 3d af 5c 25 3d 66 df 88 3d fc c3 68 3c
       0.09742931 0.040371593 0.06683235 0.014206883
0002b0 69 e4 97 bd 48 ad f5 bb 33 8d 58 bc 41 f2 ac bc
       -0.07416613 -0.0074974634 -0.013217258 -0.02111161
0002c0 01 be b4 3c 1a 3b 6b 3d bd 2d ef bd 2d 88 19 3e
       0.022063257 0.05742941 -0.11678646 0.14993353
0002d0 18 2c 12 3e 9f 15 ab 3d 4b 92 8b bd 39 95 09 be
       0.14274633 0.08353733 -0.068150125 -0.1343583
0002e0 48 ea e1 bd d1 80 57 3e ae fd 97 bc e0 f3 02 be
       -0.11031014 0.21045233 -0.018553581 -0.12788343
0002f0 c0 21 a9 bd 1e 7f 5b 3d 6a 96 bf 3d 81 00 73 3d
       -0.082583904 0.053588025 0.09354861 0.059326652
000300 0c 27 05 3b aa 1d 9c bc d1 37 4a 3e ce 6d 21 bd
       0.0020317463 -0.019057114 0.19747855 -0.03941136
000310 6f 33 d5 3c 53 75 81 bc df 68 33 bd cd 7c 20 3e
       0.026025502 -0.015803015 -0.043801185 0.15672608
000320 4c 92 3a 3d 32 27 ca 3d 33 49 89 bc 99 7e 60 3c
       0.045549676 0.09870757 -0.016758537 0.013702058
000330 e3 fc 83 3d a7 35 c3 3b 58 6d d1 bc 21 93 84 bd
       0.06444719 0.0059573236 -0.025564834 -0.06473375
000340 9d 38 fa 3d f4 dd f3 bb a0 55 b2 bc b9 51 aa 3d
       0.122178294 -0.0074422304 -0.021769345 0.083163686
000350 b8 27 8f bd 71 b5 9b bc 76 15 c2 3d e5 d1 50 3c
       -0.069899976 -0.019007416 0.094767496 0.012745355
000360 08 bc b4 bd 5c b8 33 bd c3 69 cc 3d 81 7e 17 3e
       -0.088249266 -0.04387699 0.0998111 0.14794351
000370 68 20 01 bd b9 79 fe 3d ac 02 47 3a 23 a8 be 3c
       -0.031525046 0.124255605 0.00075916457 0.023273533
000380 db 6e 37 ba 42 34 26 3e 5d 5d 58 3d 45 df 0e 3e
       -0.0006997415 0.16230872 0.052823413 0.13952358
000390 8c 29 27 bb 2f 99 87 bc 98 e5 1e 3e 9a ac e6 bd
       -0.0025506942 -0.016552536 0.1551727 -0.1126339
0003a0 30 05 cd bd c2 d9 1b 3e e2 ab 29 3c 5a 73 9f bb
       -0.10010755 0.15219787 0.010355921 -0.004866046
0003b0 3c d5 84 3c f2 7d 08 be dd ca b9 3c 17 ec 69 bc
       0.01621496 -0.13329294 0.02267974 -0.01427748
0003c0 73 5b ee b9 b6 06 c0 bb d2 dc 47 3c 3e a0 ba 3d
       -0.00045463032 -0.005860175 0.012198644 0.09112595
0003d0 dd 1d 2f 3d 31 bf 89 3e 83 3d 19 3d 47 e9 e8 bd
       0.04275309 0.2690368 0.037412178 -0.11372619
0003e0 18 6f a8 3d 09 6a 14 3e 04 d6 9a bd f6 1f 90 bd
       0.082243145 0.14493574 -0.075603515 -0.07037346
0003f0 fd 4f 20 bd 5d ab bf 3d 85 47 d2 bc d4 07 03 3e
       -0.039138783 0.09358857 -0.025668869 0.12795955

network_body._body_endoder.seq_layers.2.bias f4 [128]
000000 c0 5d c2 3c 8a 94 02 bb d9 b7 40 3b 04 e3 fc bb
       0.023726344 -0.0019924962 0.0029406457 -0.007717492
000010 bd 52 ce ba 16 09 87 3c c8 33 92 3c fd b7 9e 3c
       -0.0015741211 0.016483825 0.017846957 0.019374842
000020 9a fb 0f 3d 35 1e 85 3c 65 2d 52 bc 45 9c 40 bc
       0.035152055 0.016249755 -0.012828206 -0.011756008
000030 e1 64 e5 3a 37 b0 a5 bc 16 13 d0 3c 72 4f 64 3c
       0.0017501378 -0.020225627 0.025399726 0.013934957
000040 b1 90 49 3c be b4 56 bc c8 e6 85 bc f7 12 64 bc
       0.0123025635 -0.013104616 -0.016345397 -0.013920537
000050 43 21 07 3d b4 2c 4f 3c 76 34 98 bc 2b 2e 58 3c
       0.032990705 0.012644935 -0.018579703 0.013194601
000060 10 06 21 3c 03 b5 83 bc 88 81 30 bc e8 7d 8b 3c
       0.009828106 -0.016077524 -0.01077307 0.01702781
000070 16 d4 03 3c 48 67 48 bc d4 4d 7e bc 49 87 82 3c
       0.008046171 -0.012231655 -0.015521485 0.01593365
000080 61 3c e0 bb f0 56 d2 3c 8b 37 af 3b 7a b5 b5 3c
       -0.006843135 0.02567622 0.0053471974 0.022181261
000090 cd 87 12 3c aa 42 a8 bc af 47 47 bc c7 8a cb 3c
       0.00894351 -0.0205396 -0.012163087 0.024846448
0000a0 51 93 ea 3b 97 be c4 ba 54 0e fc bb 1e ff 47 3c
       0.0071586748 -0.0015010413 -0.0076921377 0.012206821
0000b0 b8 5a 6b bc 0f 1f 15 bc a6 33 9c bc 0c bf 2f 3d
       -0.014364891 -0.009101643 -0.019067597 0.042906806
0000c0 55 5c bf 3c 56 ca 03 bc 54 32 c1 3c 8d 92 a0 bc
       0.023359457 -0.008043846 0.023583569 -0.01960113
0000d0 05 79 ae bc 9a 5a 7c 3c d0 d1 6e bc 52 70 ca bb
       -0.021297941 0.0154024605 -0.01457639 -0.0061779404
0000e0 ad 4f 8e bc da fc 9d bc 39 70 9b bc 1b dc c1 bc
       -0.017371977 -0.019285608 -0.01897441 -0.023664525
0000f0 7d 41 4c bc cc db 0d 3b 57 97 63 bb 20 eb bc 3c
       -0.0124667855 0.0021645902 -0.0034727657 0.023061335
000100 ce f5 79 bc 11 ea 9f bb 15 42 a9 3c 40 4a d0 3b
       -0.015256358 -0.004880198 0.020661393 0.0063565075
000110 f1 82 84 3c e0 f9 5a bc b3 7f 0a bc 9a 1a 83 bc
       0.016175719 -0.013365239 -0.008453297 -0.016003896
000120 09 f0 a8 3c e0 39 73 3c 19 65 d8 3c d0 2c 94 3c
       0.02062227 0.014845341 0.026415395 0.018087775
000130 1f a6 12 bc 12 cf cd 3c d0 36 a4 3c 0e 45 54 3c
       -0.008950739 0.025123153 0.020045668 0.012955917
000140 c1 a9 90 bc 9f 11 df 3c 10 2f 77 bc f8 7a 14 3c
       -0.01765907 0.027230082 -0.015086904 0.009062521
000150 28 cf 13 3b b0 e8 d3 3c aa c3 0a bc f7 c0 a0 bc
       0.0022553895 0.02586779 -0.0084695015 -0.019623263
000160 86 68 1e bc ea d3 23 3b 58 1f 71 bc db c1 83 3c
       -0.009668475 0.0024998137 -0.014716946 0.016083648
000170 52 18 3a bb a6 2c af 3c 66 69 99 3a 9f a4 13 3b
       -0.0028395844 0.021383595 0.0011704385 0.0022528542
000180 e7 06 ca 3c 2f 65 1f bc c0 94 0a 3d e0 0e fd bb
       0.024661494 -0.009728714 0.033833265 -0.0077227205
000190 89 f5 87 3c df 3a 8a bc 1f fd ff bb ec 29 78 bc
       0.016596572 -0.016873775 -0.007812157 -0.015146714
0001a0 65 5f ea 3c f4 1c c8 3b 76 63 19 3c c2 12 96 bc
       0.02860994 0.006106967 0.009362092 -0.018319491
0001b0 ab a5 e3 3c 24 d4 92 3c 1e 76 2c bc c2 97 28 3a
       0.027788958 0.017923422 -0.010526208 0.0006431305
0001c0 21 3f d9 3c db 4f b0 3c ad 03 3b bc d9 90 84 bc
       0.02651936 0.021522453 -0.011414451 -0.01618235
0001d0 f7 83 b5 3c fa 6c eb bb 6a 7f 88 3a 16 af 8f 3b
       0.022157652 -0.007184622 0.0010413949 0.0043848855
0001e0 62 28 e7 3c e8 e2 04 3c 1d d9 86 bc 8c 60 b2 bc
       0.028217498 0.008110739 -0.01646095 -0.021774553
0001f0 83 b8 88 bb 58 3b b6 3c 36 54 95 bc 64 33 51 bc
       -0.004172386 0.022245094 -0.018228631 -0.0127686

action_model._continuous_distribution.log_sigma f4 [1, 2]
000000 c9 39 97 bd 76 c2 ad bd
       -0.073840685 -0.08484356

action_model._continuous_distribution.mu.weight f4 [2, 128]
000000 94 d0 4e 3d f9 cd f5 3b 56 be 05 3d ea 3e 0b 3d
       0.050491884 0.0075013605 0.03265222 0.033995546
000010 0b 63 5b ba c5 c6 2a 3d 54 a0 17 bc f4 95 80 3d
       -0.00083689456 0.041693468 -0.009254534 0.06278601
000020 06 b8 70 bd 86 6b a9 3a b4 65 3c 3c 29 51 e8 bb
       -0.05876925 0.0012925721 0.011498857 -0.007089753
000030 4a 18 30 bd c6 76 bb 3b b9 b1 16 bc c5 60 d5 bc
       -0.042991914 0.005720946 -0.009197646 -0.02604712
000040 08 ea 17 3d 5d 96 9d bc 26 b7 0f bc 36 59 40 3d
       0.037088424 -0.019236738 -0.008771693 0.04696008
000050 44 07 9a bd 1b 2b 28 bc 50 7a 35 bc 08 c8 88 3c
       -0.07520917 -0.010264183 -0.011076525 0.016696945
000060 01 2b 84 3d 98 e3 b5 3c 7a 71 e0 bc a8 3b 28 3d
       0.06453515 0.022203252 -0.02739786 0.041072518
000070 fc a5 00 3d 98 29 f3 ba bc eb b5 3b 7c 37 84 bb
       0.031408295 -0.0018551825 0.0055517834 -0.0040349346
000080 27 78 27 3d 8a d8 63 bd 39 16 9c 3c 9c 7a 7a 3c
       0.04088607 -0.05562643 0.019053565 0.015288021
000090 5a 71 0b 3d dd c8 3f 3b 7a 8d 92 bb 75 46 10 bd
       0.034043647 0.002926401 -0.0044724317 -0.035223443
0000a0 a7 e3 a7 ba 2c 3b 17 3c 0c 08 a5 3c 62 8b 16 3d
       -0.0012808935 0.009230416 0.020145439 0.03675402
0000b0 77 dd 00 3d 66 98 96 3c 88 ae be 3c a9 4e 43 bd
       0.031461205 0.018383216 0.023276582 -0.047682438
0000c0 25 f9 fc bb d9 6e 39 3d bc 03 a5 bc 0d f5 db 3c
       -0.00772013 0.04527173 -0.020143382 0.026850248
0000d0 3d 5e 53 3c 07 b6 4f 3c fb df 01 3d 3b 28 a1 3c
       0.012900886 0.012677676 0.031707745 0.019672504
0000e0 50 f9 27 3d fc 71 96 3c 22 a8 eb 3a c6 4a 9e 3c
       0.041009247 0.018364899 0.0017979185 0.019322764
0000f0 82 a0 3c 3d 56 6b 62 3c 57 3f 93 bc 52 05 5b bc
       0.04605151 0.013819536 -0.017974539 -0.013367968
000100 91 a2 f1 3c 7a 32 48 ba 45 48 a2 bb 8c 41 39 bd
       0.029496463 -0.0007636916 -0.004952463 -0.045228526
000110 73 25 b2 3b 6e e5 fe 3c ad e6 c8 3b 61 ba e9 3c
       0.005436593 0.03111526 0.0061310143 0.028531255
000120 07 49 81 3d 72 fb 8c 3d 2b 54 42 bd 6e 7a 07 bc
       0.06312757 0.06883897 -0.04744355 -0.008268936
000130 80 65 ce 3c be 05 bf bc b9 d6 7d bc d1 af 81 bd
       0.025194883 -0.023318168 -0.015493088 -0.063323624
000140 77 8b 82 3c 86 0f 03 bd 43 ec d1 3c 9c 10 17 bc
       0.015935643 -0.031997226 0.025625354 -0.009220269
000150 31 c7 8c 3c a4 06 a0 bd ab e2 85 3c ce 91 b8 3c
       0.017184826 -0.078137666 0.016343435 0.022530463
000160 89 10 99 3c 7a 0d 1e bc d9 1d 93 3c 64 da 5e 3d
       0.018684642 -0.009646768 0.017958568 0.054407492
000170 d1 99 b9 3c e5 e4 8d 3c ff 6d 5e 3b bc d7 0b bd
       0.022656353 0.01732106 0.0033940074 -0.034141287
000180 5a 82 af bb 25 5a 31 3c 4a 29 a2 bd 0c f2 e8 3c
       -0.0053561153 0.010824715 -0.079180315 0.02843573
000190 32 f5 8e bc f1 7d 86 3c b0 4e 9f ba a5 1a df 3a
       -0.017450903 0.016417475 -0.0012154188 0.001702149
0001a0 43 86 3c bd fb f6 93 3d f5 db b0 bb 5b 8d aa 3c
       -0.04602648 0.07224842 -0.0053973147 0.020819357
0001b0 c8 2e 1b bd f5 50 aa 3c 29 a7 be 3c b5 5d f7 bc
       -0.03788641 0.020790556 0.023273068 -0.03019605
0001c0 b0 ae a4 bc d6 48 a2 bc 07 35 aa 3c b5 31 2d bc
       -0.020102829 -0.019810122 0.020777239 -0.010570933
0001d0 3f a5 f7 3c e4 95 c8 3c bf 53 62 3d 01 1f cb 3c
       0.030230163 0.024485536 0.055255648 0.024795057
0001e0 f8 35 fe bc cc ee b4 3b 79 da f0 bb c4 7d 1c 3d
       -0.031031594 0.005521631 -0.0073502627 0.038205877
0001f0 3d f4 82 3c 61 49 19 bd 59 c9 b8 3c 68 e0 09 3d
       0.015985603 -0.037423495 0.022556948 0.033661276
000200 b4 5e af 3c 35 ee 47 bd 92 b4 40 bc 19 06 1c 3c
       0.021407463 -0.048811156 -0.011761801 0.009522938
000210 3e 20 14 bc 5c 8f 48 3d 78 47 bc 3c 4b 3a 8e 3c
       -0.00904089 0.048964843 0.022983298 0.01736178
000220 75 d8 6f 3c 7f 39 01 3d 9a ea 3b bd 69 51 00 bd
       0.01463901 0.031548973 -0.04587803 -0.03132764
000230 d2 32 b3 bc 08 42 d8 bc 03 ef db 3c 68 bf 3b bb
       -0.021874819 -0.026398674 0.026847368 -0.0028648023
000240 ed 4e 87 3c 79 ef 2e bd 9d 72 40 bc 76 dd 16 3b
       0.016517127 -0.042708848 -0.011746076 0.0023020185
000250 03 62 38 3d 59 50 17 3c 8e 16 e8 bb fa 42 02 3d
       0.045015346 0.009235465 -0.007082767 0.031802155
000260 8f ed 2c 3c 0e 13 e0 bc 2e d4 15 bc 90 86 59 3a
       0.010554685 -0.027352836 -0.009144826 0.00082979444
000270 11 15 f1 3b 30 bb f1 bc a7 33 2d ba 6d 07 85 3c
       0.0073572476 -0.029508203 -0.0006607123 0.016238892
000280 0d e2 4d 3b f6 65 6a 3c e7 fc ea bc d5 56 01 3d
       0.0031415254 0.014306536 -0.028685046 0.03157695
000290 f5 0b 86 3c df 63 a8 bc a2 a9 cf bc 7d 24 ff 3c
       0.016363123 -0.020555435 -0.025349442 0.031145329
0002a0 55 69 6d bb a4 5d 4f 3c bb d9 2a bd 09 80 77 3c
       -0.0036226113 0.012656603 -0.04171155 0.01510621
0002b0 5e 48 5d bc 4b 53 0a bd 00 f6 c5 bc 9c a7 c3 3c
       -0.013506023 -0.03377084 -0.024165154 0.023883633
0002c0 15 ac 01 3d 71 7a f9 bc 74 fb 52 3d 68 91 ee bc
       0.03165825 -0.030453892 0.051509336 -0.02912207
0002d0 69 22 04 bd fe e6 08 3d 72 cc 10 bc e1 07 39 bd
       -0.03225938 0.033423416 -0.008837806 -0.04517353
0002e0 24 c5 57 bc 75 f8 e6 bc 78 a8 ce bc 3c 94 da bc
       -0.013169561 -0.028194645 -0.025226817 -0.026682012
0002f0 55 fe 47 bc 90 2a 02 bd a9 8b e5 bc 89 59 1c 3d
       -0.012206634 -0.031778872 -0.028020697 0.038171325
000300 d1 73 7a bc e2 b4 41 bd 85 55 04 3d 52 61 43 3b
       -0.015286402 -0.047291644 0.03230812 0.0029812646
000310 89 ad a8 3c e1 15 18 bd 47 6b 41 bd 68 86 10 bc
       0.02059056 -0.03713024 -0.04722145 -0.008821107
000320 40 ac 6d 3c dc b3 35 3c d7 3d 05 3d d2 34 b4 3c
       0.0145064 0.011090245 0.03252968 0.021997843
000330 85 e0 e6 bb 5a a2 d7 3c d7 cf 63 3b 71 27 f3 bb
       -0.007045808 0.026322532 0.0034761333 -0.0074204733
000340 88 55 7c bd 9f 2c 47 3d 0d e0 d0 3a ba 92 99 3c
       -0.061605006 0.04862654 0.0015935913 0.018746722
000350 68 ae fc 3b 0c 8f 15 3b f4 bb 4f bd 21 d3 21 bd
       0.0077112205 0.0022820858 -0.050716355 -0.03950799
000360 09 2a 87 bd ee d7 30 3c 75 80 0e bd 87 4f a6 3c
       -0.065998144 0.010793669 -0.034790475 0.020301593
000370 d1 c1 22 bd c8 a5 ee 3c aa de 45 bd 02 dd 3b bd
       -0.03973562 0.029131785 -0.048308052 -0.045865066
000380 8b d3 e2 3c 11 aa 10 bd cd 8d c6 3c 44 fa 4a bd
       0.027688762 -0.035318438 0.024237538 -0.04955508
000390 43 3b 00 3c 32 c2 41 bd 6b 24 61 bd 96 13 34 3a
       0.007826629 -0.04730434 -0.05496637 0.00068693736
0003a0 23 10 ea 3c 10 8b aa bc 35 49 53 3c a9 44 cd bc
       0.028572148 -0.020818263 0.012895872 -0.025057154
0003b0 91 fd 07 3d f6 75 0c 3c c3 8f 68 bd 23 62 d1 3b
       0.033200804 0.008573046 -0.056777727 0.0063898726
0003c0 24 33 70 3d 0b 09 a3 3c 6c 9f 26 bd a3 ee 3b bd
       0.05864252 0.019901773 -0.04067938 -0.04588188
0003d0 18 d6 18 3d 7c 2c 13 3a 86 19 40 3c 1d 07 5b bc
       0.03731355 0.00056142337 0.011724835 -0.013368395
0003e0 b7 5b 0c 3d 3b 2c ab bc e8 0b 40 bd b2 f7 db bc
       0.034267154 -0.020895114 -0.046886355 -0.026851509
0003f0 cd eb 12 bd 70 8f 0b 3d 9b 3b c4 bb 0c d2 9f bc
       -0.03586941 0.03407234 -0.005988551 -0.019509338

action_model._continuous_distribution.mu.bias f4 [2]
000000 8a f2 32 bc c9 af c7 3c
       -0.010922084 0.024375813
