Assets/MoveToGoal-71900.onnx (onnx, 75062 bytes, 7 tensors)

network_body._body_endoder.seq_layers.0.weight f4 [128, 6]
00000000: 0f78 573e 4166 973e d151 36be 5f0f 793f
00000010: 33bf 06bf c7d5 d73e 6019 37bf a901 c03d
00000020: 7989 72be 8982 a5bd e055 cb3e 6d86 98be
00000030: 69f1 09be 22c0 94be 66ce a93e e5d3 1dbe
00000040: cea6 863e fa90 d1bc ec92 d0bc 5500 9f3e
00000050: 9202 60be fe3b 5dbe aa4c 0e3f 1d00 5e3d
00000060: 9e82 8b3e 056a 1e3d 5398 00bd 7af1 17bd
00000070: ec41 a43e 9359 b83d 734e 04be 01b8 1c3f
00000080: bef0 b2be aad5 e2bd 6dc2 0a3e d59e f0be
00000090: 2155 8f3c b752 f13e 416e f33c 2974 493e
000000a0: 3b97 50be 24f3 71bd b5df acbe c6cf b9be
000000b0: 517c 1e3e ee8b 3abd 2e25 dd3e 959d 0d3f
000000c0: fa28 113e 184d c3be a42c 1cbf ab41 be3d
000000d0: e771 533e 6be5 18bf e3d1 31bd f60e 943e
000000e0: d4f1 273f 0bec 9bbd 8a68 8cbc b64a 4bbd
000000f0: 8ec1 983d e10f 123e 00f8 803f 6bec 9e3d
00000100: a9ec 803e 987c 693f 8c54 fdbd bb91 17be
00000110: 471b a4be 6dd2 3c3f 3f20 b4bd 40c3 06bf
00000120: 3539 42be 8544 9f3e a877 7fbd 2b0e 1d3f
00000130: 7039 21bc 9da3 3a3c e6b6 39bf b8ed d6be
00000140: 4b1c 5cbd 96af af3d d7d0 843f 5038 ebbe
00000150: 0922 56be aa1d f8bd c933 1c3f c753 e8be
00000160: ccda 683c ae96 5ebe 8f03 ee3d a41b a8be
00000170: 0e9b 903e da7b 4cbe 29b2 4fbf 9438 46bd
00000180: b33d dbbe 1def ca3e 679c d2bb 4a2a 75bd
00000190: 6164 4b3f 8d9d f13e 8568 2ebf 83fa 87bd
000001a0: 8c15 a13d 71a2 1d3f 24b4 ed3d 0903 d1bc
000001b0: 9339 e13d 6ad5 ddbe 1958 533f 4d50 203d
000001c0: b07b c4be 2df8 5bbc 565e 63bd a96a 17bf
000001d0: 0b60 f83e 3a47 a4be fb3b 203e d466 71bd
000001e0: 4a6c 833f 0957 ed3e 4670 613e ecb9 3cbf
000001f0: deda f1bd deaa 5dbe 26ce a0be ab80 573e
00000200: fbad 543e a699 04bf d546 d33d 90ce ec3e
00000210: 39c1 8c3f 3818 633e 7b75 ee3e 7de4 5cbc
00000220: a8b4 8f3e af85 403f 496e 35be 2933 97be
00000230: e5d8 1e3e f790 babe 76f0 383e af8a 673e
00000240: 9f60 343e 5c9a aabe 992d 1e3f 0faf 893d
00000250: ebd3 a53d a088 25bd 066a 87be 5a00 bebe
00000260: fb96 bebe dccc df3e 54bb 333e 9cbb febe
00000270: b677 4d3e 2cc8 f43e 0bea 27be e761 8fbe
00000280: 5c33 15be c0d6 5a3d 8ea6 dfbe 9101 2abe
00000290: 1548 593e d0e0 813b 8117 a0bf 1e45 15bf
000002a0: 9677 c73e 49a5 62be 84b9 173f 33b3 0bbe
000002b0: 1085 463e b817 89be 065b eb3e 0a90 dabb
000002c0: c006 933e 08d9 b43e bb2b 163e 8a3c ba3e
000002d0: a43e 563e 8cd6 03be dbe7 29bf b939 873d
000002e0: 285b a9be 0444 f0bd c0c7 873c 31e0 333e
000002f0: e9eb 32bf 0deb 81bd e33b 823f 116f 45bc
00000300: 8386 fd3e 5902 11bf 5001 d0be dbc8 993e
00000310: 3251 04bf 5efa ec3c 4fee f5bd f4ab a5be
00000320: 70ea ac3e c3bb 063f 09b3 8dbe 147c a13e
00000330: f725 8a3e 4194 993e b5b1 2dbe 958d b2be
00000340: 9c65 1dbf 4c48 813e cdc6 283e 03ed b33e
00000350: e6fd 98be 9f79 1ebc a3f3 a93c 33c2 243e
00000360: 3d98 74be 0e83 d93d beda 94bd a64f 0f3e
00000370: 9831 76be 7a55 833d 2ae7 96bd d0e4 893f
00000380: 8980 22bf 8154 483e b0b2 013c e5ac 0d3e
00000390: 3ee0 21be 0c4a c53e 3d9f febe 6e1c 8f3d
000003a0: 030a e13d 3d55 e63e 8512 063f f476 7f3e
000003b0: 0824 31bf dea4 123f 5878 36be cd80 41be
000003c0: c8f7 afbe 5488 523e 408a 65be 4e28 e83e
000003d0: 67ef 513e 1985 84be 2426 a33d 2f69 883d
000003e0: 05ad d03e d5f5 3c3e b64b b63e 3cbd b9be
000003f0: 49f8 f5be 48d4 ae3e 0aa2 ce3e ab91 523e
0.21041892 0.295702 -0.17804648 0.9728908 -0.52635497 0.42155287 -0.71523094 0.09375317
-0.23685254 -0.08081538 0.39713955 -0.2979006 -0.13470997 -0.29052836 0.33165282 -0.15412863
0.26299137 -0.025581826 -0.025460683 0.3105494 -0.2187598 -0.21604916 0.5558573 0.054199327
0.2724809 0.038675327 -0.031395268 -0.037095524 0.32081544 0.0900146 -0.12920551 0.6121827
-0.34949297 -0.110759094 0.1355073 -0.4699618 0.017496647 0.4713342 0.02971566 0.19673218
-0.2037019 -0.059069768 -0.33764425 -0.3629133 0.1547711 -0.045543604 0.43192428 0.55318576
0.14175788 -0.38144755 -0.61005616 0.09289869 0.20648919 -0.59725064 -0.043413054 0.28917664
0.65603375 -0.07613381 -0.017139692 -0.049631797 0.074587926 0.1426387 1.0075684 0.07759937
0.25180557 0.9120574 -0.12369642 -0.14801686 -0.3205206 0.73758584 -0.08795213 -0.5264168
-0.18967135 0.31106964 -0.062369972 0.61349744 -0.009840354 0.0113915475 -0.72544706 -0.4197824
-0.05373792 0.08578412 1.0376233 -0.459414 -0.20911421 -0.12115033 0.6101652 -0.45376417
0.0142123215 -0.21737167 0.116217725 -0.32833588 0.28243297 -0.1996912 -0.81131226 -0.0483938
-0.4282051 0.39635554 -0.006427336 -0.059854783 0.7945004 0.47190514 -0.68128234 -0.06639578
0.07865438 0.6157599 0.11606625 -0.025514143 0.109973095 -0.43326885 0.825563 0.03913908
-0.38375616 -0.013425869 -0.055509888 -0.59147125 0.48510775 -0.32085592 0.1564788 -0.058935955
1.0267422 0.46355465 0.22015485 -0.73721194 -0.11809324 -0.21647212 -0.3140728 0.21045177
0.20769493 -0.5179695 0.103162445 0.46251345 1.0996467 0.22177207 0.46574005 -0.01348221
0.28067517 0.75203985 -0.17717852 -0.2953122 0.15512426 -0.36438724 0.18060479 0.22611497
0.17614983 -0.33320892 0.61788327 0.06722843 0.08097061 -0.0404135 -0.26448077 -0.37109643
-0.37224564 0.43710983 0.17551929 -0.4975251 0.20065197 0.4780897 -0.16397874 -0.2800438
-0.14570373 0.053427458 -0.4368176 -0.1660216 0.21218903 0.0039635673 -1.2507173 -0.5830859
0.38958424 -0.22133364 0.5926745 -0.13642578 0.19386697 -0.26775908 0.45967883 -0.006670003
0.28716087 0.35321832 0.1466512 0.36374313 0.20922333 -0.12874812 -0.6636941 0.066028066
-0.3307736 -0.11731723 0.01657474 0.17565991 -0.6989122 -0.063436605 1.0174526 -0.012050406
0.49516687 -0.5664421 -0.40626 0.30036053 -0.51686394 0.028927978 -0.120083444 -0.32357752
0.33772612 0.5263025 -0.27675655 0.31539977 0.2698209 0.2999592 -0.16962321 -0.34873644
-0.6148317 0.2525047 0.16482086 0.35141763 -0.2988121 -0.009672551 0.020746058 0.16089706
-0.238862 0.106207 -0.07268284 0.13995227 -0.24042356 0.06412788 -0.0736831 1.0772953
-0.6347738 0.19563486 0.007916138 0.13835485 -0.15808198 0.38533056 -0.49730864 0.069878444
0.10988238 0.44986907 0.5237201 0.24947721 -0.69195604 0.5728282 -0.17819345 -0.1889679
-0.3436873 0.20559818 -0.2241602 0.4534325 0.20501481 -0.25882795 0.07966259 0.06660687
0.40757003 0.18453152 0.35604638 -0.36277187 -0.4804099 0.34146333 0.40358 0.2056338

network_body._body_endoder.seq_layers.0.bias f4 [128]
00000000: 21cc a9bb 583a 243c 8f88 893b 5d55 1fbc
00000010: abed 813c 6ee1 00bc cc59 0b3c a534 5fbc
00000020: fc23 da3b fe4f 073c ccca ce3b 90b2 df3b
00000030: ccd8 2f3c 22a5 ae3b 9aa2 64bc a97e 80bc
00000040: 336f c73b 73ca c2bb 5077 c6bb 1afa 473a
00000050: 15fb c53b e6ca 263c fde0 a13b 3b27 38bc
00000060: 5b4f 193c 6ad9 3cbb 5780 aebb c842 9d3c
00000070: 5776 cf3b 2c23 b53b 8e17 103c 7132 2bbb
00000080: 4201 093c 1c8e 1a3c eeab b03b 5f68 183c
00000090: 401c 663b 2d8c 9fbb 25b2 c2ba 5253 b63b
000000a0: 6bdc 9a39 e92d 46bc 0793 14bc 3b86 203c
000000b0: bace 95ba 703c f53b 7a14 3bbc f3f9 183c
000000c0: 65b4 073c 76da 0abc 68ad 22bc ab8a 19bc
000000d0: 5246 113c 8a11 0a3c 57f0 0a3c 6382 123c
000000e0: 3064 623b ccfa c8ba 2fab 10bb 173c f03b
000000f0: dd41 4b3b b514 2bbc face 1dbc de6d 12b9
00000100: 1f1e 263c 3b4b 89bb 600d 7b3c b153 dabb
00000110: 819e 523b 155f 1fbc 6603 f1bb ee8f aaba
00000120: 9d61 ddb9 93e7 263c b385 1d3c 9019 0abc
00000130: fe16 d43b fe38 573c 78d4 8cbc 1890 5ebb
00000140: 241a db3b 6613 413c b356 fdba 0bf0 22bc
00000150: d7b7 503c 86be 03bc 8075 0dbc 5adf 0a3c
00000160: c6b5 de3b d26d b53b 4c82 43bc 2cad 00bb
00000170: 86fb 0d3b 0ad0 deba b343 e73b af79 ac3a
00000180: 8572 223c d597 ea39 5b68 af3b 4d00 f73b
00000190: 8b28 eabb 2c3b 793c d8a5 1a3b 0709 5c3c
000001a0: 3a92 2bbc c353 11bc 6c17 25bb 729a 8c3b
000001b0: 98dc 9bbb 1347 bc3b 6333 533c df18 203c
000001c0: 77d1 2a3c 9515 acbb b370 913b a622 0fbc
000001d0: dc52 14bc e47b 983b a6de 3c3b 49e5 c33b
000001e0: 1b88 53ba b878 b2ba ee31 ff3b cc5e 113c
000001f0: 2660 2d3c 6d44 4bbc e666 a63b 6b5b 14bc
-0.0051818048 0.010023676 0.0041971873 -0.009724942 0.0158604 -0.007866247 0.008505296 -0.013623391
0.0066571217 0.008258818 0.0063107964 0.006826706 0.010732841 0.005329744 -0.013954783 -0.015685396
0.006086254 -0.005944544 -0.0060567036 0.00076285156 0.006041894 0.010180211 0.004940151 -0.011239822
0.009357299 -0.0028816112 -0.005325358 0.019196883 0.006331246 0.0055278745 0.008794678 -0.0026122595
0.008362116 0.009433296 0.0053915894 0.009302228 0.0035112053 -0.004869005 -0.0014854117 0.005564132
0.00029537393 -0.012095907 -0.009068257 0.009797628 -0.0011429407 0.0074840114 -0.011418456 0.009336936
0.0082827555 -0.008474937 -0.009929039 -0.00937144 0.008866863 0.008427033 0.008480153 0.008942219
0.003454458 -0.0015333532 -0.002207469 0.007331382 0.00310146 -0.010441949 -0.009631867 -0.00013964574
0.010139017 -0.0041898764 0.015323013 -0.006662809 0.0032137933 -0.009727259 -0.0073551415 -0.0013012865
-0.00042225132 0.0101870475 0.009614396 -0.008428946 0.0064724674 0.013136147 -0.017191157 -0.0033960398
0.006686466 0.01178441 -0.0019328207 -0.009944926 0.012739143 -0.00804103 -0.008633971 0.008476103
0.0067965714 0.0055367732 -0.011932921 -0.0019634468 0.0021664812 -0.0016999256 0.007057631 0.0013158823
0.009914999 0.00044745082 0.0053530163 0.0075378777 -0.0071459464 0.015211862 0.0023597386 0.013429887
-0.010471875 -0.008870068 -0.0025190962 0.0042908723 -0.0047565214 0.0057457774 0.0128906695 0.009771555
0.010425917 -0.005251596 0.0044384836 -0.008736288 -0.009052958 0.004653441 0.0028819232 0.0059782607
-0.00080692925 -0.0013616299 0.0077879345 0.008872699 0.010582006 -0.012406451 0.0050781844 -0.009054999

network_body._body_endoder.seq_layers.2.weight f4 [128, 128]
00000000: 7275 91bc c2e5 a03d e686 48bd 8432 633d
00000010: f803 23be 8d8c d03d c062 c13d e6e2 37ba
00000020: 5149 b4bd c100 9ebd 1466 c5bd e6ac 7bbd
00000030: fb35 abbd 0c27 303d eca2 66bd 4870 e9bd
00000040: 5f10 b23a de67 803d 4ea6 eebd 8d03 b1bc
00000050: 3ad9 f03d b535 ccbc 2a44 b7bb 775b f73d
00000060: 49a3 bbbd a1cd f83c cbc1 85bd 9f4c 1cbe
00000070: 5615 65bd b881 2b3e 7e8d b5bc 7ed2 d03c
00000080: a5b2 cebd 9f99 c23d 74cd 36be fc73 2ebc
00000090: 5fe1 de3c a53c 4bbc 8930 243e d3f7 4abd
000000a0: 0123 9f3d 4644 043e c67d 483d b216 9c3c
000000b0: 14b7 4e3c 0f93 3a3d 1bc2 eabd 893a 4fbb
000000c0: 985a 22bd eb30 edbd 7b0d 253d a357 133d
000000d0: bcfc 23bc 92d8 d9bd 1bd6 a7bb c662 1b3e
000000e0: 2dd8 d7bd 86b9 323d 07d3 bbbd 97ef ed3c
000000f0: 8bd4 53bd b0b2 a83b e33d 053e 42ef 4a3d
00000100: d43c 503e b850 d1bb eca5 f03d be72 313d
00000110: 2328 413e 4477 633d 0210 793d beb9 cfbd
00000120: 11c7 f73c b58c 083e 9f44 dbbc ca39 6b3d
00000130: 93b7 d3bd dac3 8abd 0ccd 92bd da23 123d
00000140: 87d2 76bd c39c e0bd 9538 8fbd 8715 8abd
00000150: 9d61 b9bc 2b4a 3d3d ca9d 3bbd 5f36 90bd
00000160: adcb 393e d8a7 713d a578 7d3c eb20 403d
00000170: 4393 213b ea25 1cbd 372b 793d f2c7 023d
00000180: ad41 f0bc 46cd df3d 3501 7a3d 30a3 a83d
00000190: 4aed b6bc d787 0a3d 449b b23b 92e0 3f3d
000001a0: f68f 013d 610f 753c 4f01 c2bd 166c cd3c
000001b0: dff3 223d 3baf 0d3e 6594 903c b8f8 a9bd
000001c0: 326a afbc ae4a bcbd 95fc 293d 869a fdbc
000001d0: 37f0 83bd 7363 4cbc 4059 9abd 04d9 6fbd
000001e0: aeb6 dabd 4e8f 24bd 4656 403e 54ac fbbc
000001f0: 334f f0bd 68d4 93bd 114e 82bd 6832 3fbe
00000200: 8820 ed3d 27b7 c83d cd7d 393d 99a2 f0bd
00000210: 8bec 8bbd 475d 063d 1b4c 903d 86f8 d8bd
00000220: 1fea cb3b b98e 3ebd a1bd 97bd 0892 33bd
00000230: b040 4c3c 14f6 bd3b c3d1 c8bd cacb 8fbd
00000240: 0b77 f7bc 5a12 a6bc 6960 e2bc ea70 b63d
00000250: 2dda a93c 5257 2dbd 4801 86be 51de 9abd
00000260: 94ab bbbd 278f cdbd e17c 2abd b743 5dbd
00000270: 2053 983c c1a1 7c3d e1d6 06be 3bd9 573d
00000280: ed0e 9dbd 1da2 c93d 2213 b2bb 37f7 0f3d
00000290: f7a1 613e 404f f1bd d06f 203d 96f1 1abc
000002a0: 9f69 003c 2691 eb3d 7391 e93d c74f 3b3d
000002b0: a45f 3a3d 7367 38bd 500a 5abb 1415 d83c
000002c0: fb6f b5bd 7245 933c 4974 06be fc4a 53bd
000002d0: 5560 da3d 5381 80bd 11f0 873c 0ad0 833d
000002e0: 5eb9 6bbc 67cc cdbd 8ae2 db3d 947b 0fbe
000002f0: 79da 233e 63ce 9dbc 079f 09be 405b 573d
00000300: c374 d43d 8af5 b53d 8dbc 96bd 26aa f1bd
00000310: 60a1 943d d3cc 63bd db91 32be faa6 3fbe
00000320: 85ce 133e 3a94 9dbd 6bd1 5f3d 1de1 323d
00000330: d2e0 8e3d da49 62bd 1200 ad3d 34d2 163d
00000340: ab7d acbd 82cb 81bd c3ba 56bc 3e0c e4bc
00000350: fd59 b63d 85da 6c3d 1df4 813d f08e 9ebd
00000360: e2d7 8dbc 8184 f4bd 44f1 0abd 5c34 37be
00000370: cce7 e73c 632c 49bd 047f 12be 4a83 273e
00000380: 0a31 073e 0a14 d93b aef7 bebd c2cc 263d
00000390: eb09 c0bc 8cc0 99bc 8141 85bd 1508 cebd
000003a0: 6342 693c 11b9 4ebd 0f28 0a3e 795d a8bd
000003b0: 99d2 393d 65c7 09be 4555 1fbe 66f0 16bd
000003c0: 07b0 b9bd 95f6 a43d 092e 1bbe 07ec 40bc
000003d0: 4e7e 0d3e 49fc e9bc 5931 47bc 31f1 d5bd
000003e0: e492 113e 8648 283e 3ba3 813d 4ee3 eb3d
000003f0: 3e99 413d 64c7 883d d5fc 8fbd ef74 d2bd
-0.017756198 0.07856323 -0.048956774 0.055468097 -0.15919483 0.10183058 0.09442663 -0.00070147065
-0.088030465 -0.077149875 -0.096386105 -0.061444186 -0.08359905 0.043005988 -0.05630772 -0.11398369
0.0013585201 0.06269811 -0.11652814 -0.021608138 0.11760183 -0.024927953 -0.0055928426 0.120779924
-0.091620035 0.030371489 -0.06531104 -0.15263604 -0.05592855 0.16748703 -0.022162195 0.025490995
-0.100926675 0.09501957 -0.17851812 -0.01064777 0.027207075 -0.0124045955 0.1603414 -0.04955275
0.07770348 0.12916669 0.048948072 0.01905379 0.012616891 0.045550402 -0.11462804 -0.0031620583
-0.03963718 -0.11581596 0.04029606 0.03597225 -0.010008987 -0.10637011 -0.005121959 0.15174398
-0.10539279 0.04363396 -0.0917111 0.02904491 -0.05171637 0.0051482543 0.13011889 0.04954458
0.20335704 -0.0063877963 0.11750397 0.043322317 0.18862967 0.055533662 0.060806282 -0.101428494
0.03024629 0.13334925 -0.02676612 0.05742816 -0.103377484 -0.06775637 -0.07168016 0.035678722
-0.06025937 -0.109674 -0.06993214 -0.06742387 -0.022629553 0.04621331 -0.045804776 -0.070416205
0.18144102 0.05899796 0.015470658 0.046906393 0.0024654425 -0.038122095 0.06083223 0.031928964
-0.029328192 0.10927825 0.061036307 0.082342505 -0.022329945 0.033820953 0.005450638 0.046845026
0.031631432 0.01495728 -0.09472906 0.025075953 0.039783355 0.13836376 0.017648885 -0.082993925
-0.021412943 -0.091939315 0.041500647 -0.030957472 -0.06442302 -0.012474882 -0.07536554 -0.05855657
-0.10679375 -0.04017573 0.1878291 -0.03072182 -0.11733856 -0.07218248 -0.06362546 -0.18671572
0.115784705 0.098005585 0.04528599 -0.11749763 -0.06832226 0.0328038 0.07045766 -0.10594277
0.006222978 -0.04652283 -0.07409216 -0.043840438 0.012466595 0.005797157 -0.09805634 -0.070212916
-0.030208131 -0.020272423 -0.027633863 0.089082554 0.020733917 -0.042319603 -0.26172853 -0.07561935
-0.09163585 -0.1003707 -0.041623 -0.054019656 0.018594325 0.061677698 -0.13167907 0.0526974
-0.076688625 0.09845374 -0.0054344097 0.03514787 0.22034441 -0.11782694 0.039169133 -0.009457013
0.007837682 0.11502294 0.11404695 0.04573038 0.045501366 -0.045020532 -0.0033270307 0.026377238
-0.08859249 0.01797745 -0.13130297 -0.051585183 0.10662905 -0.06274667 0.016593965 0.06436165
-0.014387457 -0.10048752 0.10736568 -0.14011985 0.1600131 -0.019263452 -0.1343957 0.052577257
0.10373833 0.088847235 -0.07360182 -0.11800031 0.07257342 -0.055615257 -0.17438452 -0.1871604
0.1443425 -0.076942876 0.054643076 0.043671716 0.06976475 -0.05524621 0.08447279 0.03682156
-0.08422407 -0.06337644 -0.013106051 -0.027837869 0.08903883 0.057825584 0.06345389 -0.07742107
-0.017314855 -0.119393356 -0.033921495 -0.17891067 0.028308772 -0.049114596 -0.14306265 0.16358677
0.132023 0.0066247033 -0.09324585 0.040722616 -0.02344223 -0.018768571 -0.065066345 -0.10060135
0.014237019 -0.05046946 0.13491844 -0.082209535 0.045366857 -0.13454969 -0.15559871 -0.036850356
-0.09066778 0.08054844 -0.1515428 -0.011775023 0.13817713 -0.028562682 -0.0121577615 -0.10446394
0.1421619 0.16433915 0.06329962 0.11517964 0.047265284 0.06678656 -0.07030646 -0.102762096

network_body._body_endoder.seq_layers.2.bias f4 [128]
00000000: f953 edbb 90c7 e73b 25c6 15bc 137d 7a3b
00000010: 1e80 c93b 73e3 39bc e40c 783b 07ef d2bb
00000020: 9aa0 5fbc 2446 593c 1c34 a73b ec2f 383c
00000030: 6ffc eb3b 84fb 113c 983f dbbb 2551 af3b
00000040: 280d dd3b c2b5 19bc 40da ee3b 15ab a0bb
00000050: c492 203c b35e 183c e549 cb3b 0a1b 08ba
00000060: e308 28bc f41f 563a 459f b1b9 9951 45bc
00000070: fcaf fb3b c5ef 973b 4f8f c43b 84cb 903b
00000080: 7ef7 97bb f655 183c 3a6a 04bc 563c 283c
00000090: 4935 38ba 9e54 64bb d2d4 87bb c48b 77bb
000000a0: c70b 3abb d4c5 13bb faae b3bb 6bff 08bb
000000b0: f39d edbb 06c0 d9bb a709 493b 4665 02bc
000000c0: c814 953b 1b77 5dbb 9ac2 89ba 12ba 4d3c
000000d0: 4e68 2bbc 6494 d0bb a8e2 b7bb 1dda 84bb
000000e0: 9bd7 ef3b 684c fabb 6fa1 433c b81e 363c
000000f0: a1a4 efbb 3882 3f3c 8010 b6bb c257 e0bb
00000100: 33dc 05bb 7760 183c 861f f8ba f368 19bc
00000110: a841 90bb 1d10 a1bb 3e90 1abc 9c93 21bb
00000120: 292a 0abc 6a9c 063c 7523 5c3c d2c5 073b
00000130: eed5 1f3c e2e4 16bc 44b3 0f3c 2586 593b
00000140: ad68 253c ca52 a23a 276a 3a3c 32f2 093c
00000150: 30ae 0b3c a8d7 32bc 9449 023c df1e 483b
00000160: aa16 be3b 44e2 9abb 3125 88bb 3816 8abb
00000170: 6994 143c cd74 13bc 4da6 1ebc 9117 10bc
00000180: 0b23 2abc 1072 4dbb dbef 2a3a d91d 23bb
00000190: eeb8 0c3c 4d0d cc3b a3c6 90b9 22a0 7b3c
000001a0: ec0e e9bb 1c39 423a 89eb 2abc 93b1 393c
000001b0: bba0 0a3c 0079 163c 91bb 69bc 6717 6cbb
000001c0: 6b0c 3e3b 478f a23b 84cf 0d3c 5ec8 63ba
000001d0: 0b0e 1dbc a76f c33b 14aa 163c 73f8 debb
000001e0: d33c 273c 2ec5 9e3c cf4c bfbb 63cc fbbb
000001f0: af03 ce3b f67a ab3b f313 193c 0444 213c
-0.0072426763 0.0070733503 -0.00914148 0.0038221523 0.006149306 -0.011345732 0.003784948 -0.0064371857
-0.01364913 0.013261352 0.0051026475 0.011241894 0.0072017233 0.008910064 -0.0066909306 0.0053502494
0.006745953 -0.009381713 0.007289201 -0.004903207 0.009800617 0.009299922 0.0062038773 -0.00051920174
-0.010256025 0.00081682135 -0.00033878736 -0.01204338 0.007680891 0.004636737 0.005998529 0.004418792
-0.0046376577 0.009297838 -0.008081967 0.010268291 -0.0007026983 -0.0034840475 -0.004145243 -0.0037772516
-0.0028388368 -0.0022548335 -0.0054835053 -0.0020904194 -0.007251495 -0.0066452054 0.003067592 -0.007958716
0.0045495965 -0.0033792916 -0.0010510266 0.01255657 -0.01046188 -0.006365346 -0.0056117363 -0.0040543214
0.0073194033 -0.007638503 0.011940344 0.011115722 -0.0073133265 0.011688761 -0.005556166 -0.006846399
-0.0020425438 0.009300343 -0.0018930293 -0.009363401 -0.004402358 -0.004915251 -0.009433804 -0.0024654632
-0.008432903 0.008216003 0.013436188 0.0020717275 0.009755595 -0.009209843 0.008770768 0.0033191529
0.010095757 0.0012384292 0.011377848 0.00841956 0.008525416 -0.010915674 0.007952113 0.0030535979
0.0058010416 -0.00472668 -0.004154824 -0.0042140745 0.009068587 -0.009000015 -0.009683204 -0.008794681
-0.010384331 -0.0031348504 0.00065207266 -0.0024889617 0.008589013 0.0062271715 -0.00027613816 0.015358003
-0.0071123745 0.00074090227 -0.0104321325 0.011333841 0.008461173 0.009184122 -0.014265911 -0.003602469
0.00289991 0.0049609276 0.008655433 -0.000868922 -0.009585868 0.0059642377 0.009195823 -0.00680452
0.010207373 0.019381132 -0.0058380137 -0.007684277 0.00628706 0.005233164 0.009343135 0.009842876

action_model._continuous_distribution.log_sigma f4 [1, 2]
00000000: be98 95ba 123e 9dbc
-0.0011413319 -0.019194636

action_model._continuous_distribution.mu.weight f4 [2, 128]
00000000: c7eb 1d3c 34cf 103b 8a11 afbb 84ef 5cbd
00000010: 98da 73bc 6957 43bc 5df2 273c 9099 1f3d
00000020: 23c6 423c 3a5f 983c 0d61 31bc f98a aa3b
00000030: 1b49 bd3c cc7b a4bc 9886 2cbc 9608 18bd
00000040: 7685 a03b bb7a aebb 1e85 2cbd f7e6 bfbc
00000050: 6c45 72bc 0ff8 29bd a0fb c6bb 7bd3 7dbc
00000060: a281 ed3b 4345 fd3b 4285 91bc 895b cf3b
00000070: 1495 f1bc 182f 5dbc fedb f73b cb6d 383c
00000080: c047 c23c 36b0 aebc 1f28 f03b 5c71 e03c
00000090: d03d 96bb b665 0b3d f9b7 b1bc 7f51 9d3c
000000a0: 461f 183b ba30 c83c 7295 12bc c62e 3c3d
000000b0: 04b9 d43c 6cb7 00bc 3157 ee3c 887a 41bc
000000c0: 5971 1e3d 9e9a 07bd d180 e6ba 1676 0f3c
000000d0: 91cc 233b 266d 833c 2069 ad3c 23ff 033c
000000e0: bc0a afbc 8c2f d5bc 2cbf b93c 2506 55bc
000000f0: 9140 8a3c f70c 193b 3e43 063d 4acd 25bd
00000100: 7dd1 d8bc 5752 efbb 8697 293c d6ea a93b
00000110: 6e6f d63b 1cbc 2b3c ac88 fc3b 2bad 72bc
00000120: 5a15 2fbb e01e 3a3c 80dd a53c 508e 01bc
00000130: 265b 96bc 0b0b 66bb 051a 3e3d d069 c5bc
00000140: 48c4 c1bc 08f9 0fbd 8c35 073d 2a99 d93c
00000150: b231 1bbc c224 e63c c93c 4fbc ef5b 60bc
00000160: 139b 353c 3e26 f2bb 7676 02bc ad99 40bd
00000170: c76a 83ba 0a87 eebc 2253 9d3a 252b aabb
00000180: 1597 49b9 4558 783c 6d5c 50bc 861e 253c
00000190: 1398 1ebd ed1a 62bc c68d 05bd c2b8 4ebd
000001a0: 4331 5e3b a1fe 8ebc 9b79 37bc 2850 19bd
000001b0: 1ac8 92bb a42a 50bc f88f b739 a79b be3b
000001c0: d6f6 a5bc 8d6c 57bc eda3 c23a aa99 203d
000001d0: 4df4 70bc 19e2 c43a cc3e dbbc 8d4c 65bc
000001e0: c1ff abbc 5cea 943c aad3 7ebc bd0e dfbc
000001f0: c8fa 00bc 2838 733c 7b42 193a 9a43 9c3b
00000200: b26b 88bc 342e 3b3b 386c bdbc 45e3 bdbb
00000210: 4315 2f3c 5677 cbbc ed0e 083c bba3 10bc
00000220: 80f5 74bd 428d a23c ef33 583b 6cb0 083d
00000230: 4d03 783c a3c2 833c 0258 8bbc 67a8 bf39
00000240: 56a2 e03c abd2 afbc cc8f 78bb a204 cfbb
00000250: b56a 95bb 9218 0ebb 8d96 243c f990 333a
00000260: 1eb3 73bc 1b29 07bc b6db 183b d426 09bb
00000270: a868 da3c 0a2e 9ebc c785 083c 3c62 9aba
00000280: 028d 83bb cc52 ad3c 194d 9bba 0017 803b
00000290: be05 c7bc 7269 81bc 34e1 11bd 0fb9 d6bb
000002a0: 4d5e ccbc 2660 05bd 8fa9 77bc f770 c2bc
000002b0: 6cbe 96bc 401f d5bc d409 cabb c848 47bc
000002c0: 4ad0 53b9 a18b 15bc 03ed ee3a 3283 3a3d
000002d0: 0678 38bd 11e0 8cbc e806 71bc 2c1b a3ba
000002e0: 2b5a 6abc bfac dcbc 5be2 ec3c b7e3 b43c
000002f0: c566 89bc 8be6 e53c 19e3 febc 28c3 11bd
00000300: 4eab a4bb f11f b33c 59e4 c33b 951e 76bc
00000310: 5691 c93b 09f5 bdbc df22 9dbc b64c 93bb
00000320: b5e5 13bd 624c 4ebb 40d9 c13c 56cb 84bc
00000330: 5886 b73c 6fb3 b2bc ec47 c9ba cbd7 bc3c
00000340: 6e94 d03c d135 383c 3cd2 843d 9813 e23c
00000350: ca32 543b 76c3 c8bc 9698 c43b 7fbb 2a3c
00000360: b2d8 0abd d732 f2bb e4ca adbb 343d e3bb
00000370: 9304 8b3c cc71 a1bc dc6c cabc 63af f3bc
00000380: 5083 6bbc 7916 cfbc a266 903b ccae 1cbc
00000390: b6fc 82bc d913 8c3c 11a4 893b 5687 753c
000003a0: 2d5a 3abd 58e0 e43b 658a c1bc b517 4d3c
000003b0: 51e0 673c ec63 273d 2664 febc 6b63 283c
000003c0: 753c a03b 5a36 cab9 c6ec 3c3d 3904 5f3b
000003d0: fe84 29bc 90a2 a4bb 919b fc3c 989e 47bd
000003e0: 0b38 f23c f7e3 bc3c c6d2 eeb9 6ea3 09bd
000003f0: 085f 2a3c 081c 903c eb4b bd3c 1fbb dc3c
0.009638733 0.002209616 -0.005342667 -0.053939357 -0.01488366 -0.011922696 0.010250655 0.038964808
0.01188806 0.018600095 -0.010826361 0.005204555 0.023106148 -0.020078562 -0.0105301365 -0.037117563
0.0048987223 -0.005324689 -0.042119138 -0.023425562 -0.014787059 -0.041496333 -0.0060724765 -0.015492315
0.0072481195 0.007729204 -0.017763738 0.0063280505 -0.029490031 -0.013499998 0.007564067 0.011256645
0.023715854 -0.021324258 0.0073290016 0.027397804 -0.0045850053 0.034032546 -0.02169417 0.0192039
0.0023212 0.024437297 -0.008946763 0.045943044 0.025967129 -0.007856231 0.02909431 -0.011808999
0.038682315 -0.03310644 -0.0017585998 0.008756181 0.0024993757 0.016043257 0.021168292 0.008056435
-0.021367423 -0.026023649 0.022674166 -0.013001953 0.01687649 0.0023353675 0.03277897 -0.040478982
-0.02646708 -0.007303517 0.010351067 0.0051854653 0.006544045 0.0104818605 0.0077067222 -0.014811794
-0.0026715607 0.0113599 0.020247221 -0.007907465 -0.01835401 -0.0035101797 0.046411533 -0.024098307
-0.023653165 -0.035149604 0.03301005 0.026562292 -0.0094722975 0.0280937 -0.01264877 -0.013693794
0.011084336 -0.0073898127 -0.007962814 -0.047021557 -0.0010026329 -0.029117126 0.0012002925 -0.0051931315
-0.00019225136 0.015157764 -0.0127173485 0.010078078 -0.038719248 -0.013800365 -0.03260591 -0.050469168
0.0033903874 -0.0174554 -0.011198427 -0.03742996 -0.0044794204 -0.012705479 0.00035011745 0.005816895
-0.020259302 -0.013148439 0.0014849879 0.039209045 -0.014706683 0.0015020996 -0.026763342 -0.013995302
-0.020995976 0.018178158 -0.015553394 -0.027228707 -0.007872291 0.014844932 0.0005846393 0.004768801
-0.016652916 0.0028561475 -0.023122892 -0.005794915 0.0106862215 -0.024837177 0.00830434 -0.008828099
-0.05980444 0.019842748 0.003298994 0.033371374 0.015137506 0.016084021 -0.017009739 0.00036555828
0.027421158 -0.021462759 -0.0037927506 -0.006317691 -0.0045598396 -0.0021682126 0.01004566 0.0006849911
-0.014874248 -0.008249546 0.0023324317 -0.0020927684 0.026661232 -0.019309063 0.008332676 -0.0011778544
-0.004014612 0.021157645 -0.0011848538 0.003908992 -0.02429473 -0.01579735 -0.03561516 -0.0065528224
-0.02494731 -0.032562397 -0.0151161095 -0.023735506 -0.018401347 -0.026015878 -0.0061657224 -0.0121633485
-0.00020200122 -0.009127528 0.0018228594 0.045535274 -0.04503634 -0.017196687 -0.014711119 -0.0012444011
-0.014303724 -0.02693784 0.028916528 0.02208124 -0.016772637 0.028064033 -0.031114148 -0.035586506
-0.005025304 0.021865817 0.005978149 -0.01502194 0.0061513586 -0.02318813 -0.019181667 -0.0044952286
-0.036107738 -0.0031478633 0.023663163 -0.01621024 0.022402927 -0.021814076 -0.0015356517 0.023052117
0.025461402 0.0112433 0.064854115 0.027597234 0.0032378905 -0.024507266 0.005999635 0.010420679
-0.033898063 -0.0073913145 -0.0053037275 -0.006934786 0.016969955 -0.019707583 -0.024710111 -0.029746717
-0.014374569 -0.02527927 0.004406766 -0.009563159 -0.015989643 0.017099308 0.0042004664 0.01498588
-0.045496155 0.0069847517 -0.023625562 0.012517859 0.014152602 0.040866777 -0.031053614 0.010277609
0.0048900195 -0.00038568937 0.046124242 0.0034029617 -0.010346649 -0.005024262 0.030835899 -0.04873523
0.029567739 0.02305792 -0.00045551936 -0.033603124 0.010398634 0.017591491 0.02310749 0.026944695

action_model._continuous_distribution.mu.bias f4 [2]
00000000: 54ab 8939 c5cc 2c3c
0.00026258326 0.010546868
