Assets/MoveToGoalRand1.onnx (onnx, 75062 bytes, 7 tensors)

network_body._body_endoder.seq_layers.0.weight f4 [128, 6]
0	0xbe8af4a8	-0.27139783
1	0x3d0a83fc	0.033817276
2	0xbe3a9053	-0.18219118
3	0x3e9d8319	0.30764082
4	0x3f72460a	0.9463812
5	0x3f08c3de	0.5342387
6	0xbf429990	-0.7601557
7	0x3dcf91b3	0.10135212
8	0x3d8c80e6	0.06860523
9	0xbf1b20d8	-0.6059699
10	0x3eab53fc	0.33462512
11	0x3f1802b6	0.59379137
12	0xbf43cc07	-0.76483196
13	0x3dd1b1c9	0.10238988
14	0xbd241fcb	-0.040069383
15	0xbe35a553	-0.17738847
16	0xbf2579de	-0.6463908
17	0x3edefade	0.4355077
18	0xbed3e7ef	-0.4138789
19	0xbd48a687	-0.048986938
20	0xbd9903ee	-0.07471453
21	0x3e5792b6	0.2105206
22	0x3ea80bd8	0.32821536
23	0x3e25a357	0.1617559
24	0xbe3dfa52	-0.18552521
25	0xbed917d4	-0.42400992
26	0xbaa469c9	-0.0012543733
27	0x3e74a947	0.23892699
28	0x3da3ced1	0.079984315
29	0x3d4d0c51	0.050060574
30	0x3d22294a	0.039590158
31	0xbeeee870	-0.4666171
32	0xbf1321c7	-0.57473415
33	0xbf75434c	-0.9580581
34	0xbe4f03d7	-0.20216309
35	0xbf6c5843	-0.92322177
36	0x3f4e0771	0.80480105
37	0xbf0bf19b	-0.54665536
38	0x3e39a118	0.18127859
39	0xbcb43642	-0.021998528
40	0x3d37b3b3	0.04484911
41	0x3d94bf50	0.072630525
42	0xbe4a9ed6	-0.19787154
43	0xbf914a1f	-1.1350745
44	0x3edb0def	0.42784068
45	0xbe9be356	-0.3044688
46	0xbeb312da	-0.3497532
47	0x3efd310b	0.4945148
48	0x3eac354a	0.33634406
49	0xbf24b500	-0.64338684
50	0xbe170f81	-0.14752008
51	0xbf634edb	-0.887922
52	0xbefe6425	-0.4968578
53	0x3d1ba64a	0.038000382
54	0xbf09168c	-0.5355003
55	0x3f0ffa43	0.56241244
56	0xbf7bd80a	-0.98376524
57	0x3d224785	0.039618988
58	0xbda4ae79	-0.080410905
59	0xbedcef33	-0.43151245
60	0xbd85744e	-0.06516324
61	0xbe53aba2	-0.20670941
62	0x3e431d77	0.19054209
63	0x3da0ad99	0.07845611
64	0x3d0a822e	0.033815555
65	0xbe890383	-0.26760492
66	0x3d9f1d16	0.077692196
67	0xbe8b7686	-0.27238864
68	0xbef3d398	-0.4762237
69	0x3f34cc88	0.7062459
70	0xbc08e54d	-0.008355451
71	0x3f1ff0ea	0.6247698
72	0xbedbcded	-0.42930546
73	0xbebd8d67	-0.37021944
74	0x3eb82ab4	0.3597008
75	0xbee166db	-0.44023785
76	0xbd837090	-0.06417954
77	0xbe26b3cf	-0.16279529
78	0x3f0c2524	0.5474417
79	0xbeff19a5	-0.49824253
80	0xbe8f9d78	-0.28049827
81	0x3ef29d2d	0.4738554
82	0xbe65c80c	-0.22439593
83	0x3f16c890	0.58899784
84	0xbe346db1	-0.17619969
85	0xbe840c2a	-0.2579053
86	0xbf0db46a	-0.55353415
87	0x3db5a475	0.08869258
88	0xbd0e8455	-0.03479417
89	0x3f2d0ebd	0.67600614
90	0x3ec73fd4	0.38915884
91	0x3e34466c	0.17604989
92	0x3f149f0a	0.58055174
93	0xbeb83a5a	-0.3598202
94	0x3e1d011e	0.15332457
95	0x3e19cf00	0.1502037
96	0xbe51417b	-0.20435135
97	0x3d890e59	0.0669219
98	0xbc2ad72a	-0.010427276
99	0x3e326163	0.17419963
100	0x3eb15be9	0.34640434
101	0x3e908b0b	0.2823108
102	0xbeb8f45e	-0.36123937
103	0xbee53cec	-0.44773042
104	0xbeae2a8f	-0.34016845
105	0x3f732477	0.94977516
106	0x3f27617f	0.6538314
107	0xbe29db19	-0.16587485
108	0xbf43f096	-0.7653898
109	0x3ca29324	0.019845553
110	0x3e837538	0.25675368
111	0x3d9baf90	0.07601845
112	0xbd130025	-0.03588881
113	0x3f31325a	0.69217455
114	0xbdba4b3b	-0.0909638
115	0xbe245c63	-0.16050868
116	0x3f3c1583	0.73470324
117	0x3e2310eb	0.15924422
118	0x3ed25660	0.41081524
119	0xbf22c46a	-0.63580954
120	0xbeeeea9b	-0.46663365
121	0xbf1a7d41	-0.6034737
122	0x3d86e557	0.06586712
123	0x3f1f1836	0.6214632
124	0xbda506c6	-0.080579326
125	0xbeb7c3fc	-0.35891712
126	0xbf461322	-0.77372944
127	0x3d9d8897	0.07692068
128	0x3d5ae685	0.053442497
129	0x3f7207f9	0.94543415
130	0xbf13211d	-0.574724
131	0x3f780a75	0.96890956
132	0x3f628280	0.8848038
133	0x3ee436a9	0.44572952
134	0xbda02582	-0.07819654
135	0xbe891e93	-0.2678114
136	0x3d192361	0.037387256
137	0x3d0c7996	0.03429564
138	0xbed56956	-0.41681927
139	0x3ee8de3a	0.45482045
140	0x3f3cab35	0.7369874
141	0xbf126c1e	-0.57196224
142	0xbf69562f	-0.9114713
143	0x3f58bd62	0.84663975
144	0x3e4cd627	0.20003568
145	0x3eea3748	0.457453
146	0xbe5a1013	-0.21295194
147	0xbe2f2999	-0.17105712
148	0xbd24c55a	-0.04022727
149	0x3e71c82d	0.23611517
150	0xbe780d2f	-0.24223779
151	0x3e3742f0	0.17896628
152	0x3e671649	0.22567095
153	0x3d90b419	0.07065601
154	0xbf12da8f	-0.57364744
155	0x3edce0bc	0.4314021
156	0xbdf41ce9	-0.11919577
157	0x3e015a6f	0.12632154
158	0x3eeff0b8	0.4686334
159	0xbdcf016f	-0.10107695
160	0xbd9cb1e6	-0.07651119
161	0x3d4a6a0d	0.049417544
162	0xbde2bc06	-0.11071019
163	0xbd4f1b44	-0.050563112
164	0xbec0b364	-0.37636864
165	0x3ecc5c34	0.39914095
166	0xbe9be728	-0.30449796
167	0xbdc7fc85	-0.09764961
168	0xbf0ba6e2	-0.5455152
169	0x3eed6728	0.46367764
170	0x3e9b86db	0.30376324
171	0xbeecde94	-0.46263564
172	0xbea1e60b	-0.3162082
173	0xbedf4455	-0.4360682
174	0xbed2791e	-0.4110803
175	0x3ee36137	0.44410107
176	0xbee061c1	-0.4382458
177	0xbf25a64e	-0.64706886
178	0x3d34b2d4	0.044115856
179	0x3d393051	0.045212094
180	0xbf297c0d	-0.6620491
181	0x3e2d1841	0.16903783
182	0xbf88798e	-1.0662096
183	0x3f03df94	0.5151303
184	0x3e949120	0.29016972
185	0x3d94c6ee	0.07264505
186	0x3d8a305f	0.06747507
187	0xbdc125b4	-0.094310194
188	0xbe60f170	-0.21967101
189	0x3ebd6380	0.36989975
190	0x3e9fd902	0.3122025
191	0xbeb4d4a3	-0.3531848
192	0xbebde7f8	-0.3709104
193	0x3e8c03c8	0.27346635
194	0xbe6cce3e	-0.2312555
195	0x3eccbc2d	0.39987317
196	0x3ea707d2	0.32623154
197	0xbed16a16	-0.4090125
198	0xbe4f52aa	-0.20246378
199	0xbb1b2f06	-0.0023679151
200	0x3f116aae	0.56803405
201	0x3e749c89	0.23887838
202	0xbdd46a81	-0.103718765
203	0xbd7e017d	-0.062013138
204	0xbef8e1d5	-0.48609796
205	0x3e55017a	0.20801345
206	0xbe44be3a	-0.1921319
207	0x3e6a8e92	0.22905949
208	0xbe84cd42	-0.2593785
209	0x3db298b6	0.087205335
210	0xbead97cc	-0.33904874
211	0xbe565920	-0.20932436
212	0x3df5ecc3	0.12008049
213	0xbf0d9f34	-0.5532105
214	0x3eaf8780	0.34283066
215	0xbe97174a	-0.29509956
216	0x3deab0eb	0.11459526
217	0x3e55c468	0.20875704
218	0xbeceb039	-0.40368822
219	0x3ce08dc5	0.027411351
220	0xbe20d869	-0.15707554
221	0xbd9ce623	-0.076610826
222	0xbf940565	-1.1564146
223	0xbf13ae31	-0.5768767
224	0x3e875179	0.26429346
225	0xbf11de2c	-0.5697963
226	0x3e70e76b	0.23525779
227	0xbdba187f	-0.090867035
228	0xbe8ce0fd	-0.27515402
229	0x3eabe22a	0.33570987
230	0x3e359e43	0.17736153
231	0xbf15e32d	-0.5854977
232	0xbe13b553	-0.14424638
233	0x3cf44bc8	0.029821292
234	0x3eae289b	0.34015355
235	0xbe9e8276	-0.3095891
236	0xbe6e1152	-0.23248795
237	0x3f2e6149	0.68117195
238	0xbe723148	-0.23651612
239	0x3ee147a6	0.43999976
240	0x3e2d7a79	0.16941251
241	0xbf128a6d	-0.5724247
242	0x3df77ef8	0.12084764
243	0xbe956566	-0.29178923
244	0xbe6fd9b0	-0.23422885
245	0xbdcc301a	-0.09970112
246	0xbf355e90	-0.70847416
247	0x3e563939	0.20920266
248	0x3d46e48a	0.048557796
249	0xbf07ef54	-0.5309956
250	0xbf5bdb3e	-0.8588141
251	0x3f32a891	0.6978846
252	0x3ea83581	0.3285332
253	0x3e986d08	0.29770684
254	0xbefcfc13	-0.49411067
255	0x3e0fc18a	0.14038673

network_body._body_endoder.seq_layers.0.bias f4 [128]
0	0xbc430a09	-0.011904248
1	0x3caa99b4	0.020825244
2	0x3c280fbd	0.010257659
3	0x3cb0c2fa	0.021577347
4	0x3d34a40c	0.04410176
5	0x3b957933	0.004561567
6	0xbcfa9cc9	-0.03059234
7	0x3cd4154d	0.025889063
8	0x3a3ea536	0.0007272543
9	0x3bf46f4f	0.007459558
10	0x3d52575b	0.05135284
11	0x3ccfde81	0.025374653
12	0x3d6a082a	0.057136692
13	0x3b8bb12a	0.004263063
14	0x3d4bb8fe	0.04973697
15	0xbbaeba02	-0.0053322325
16	0x3cf2fd8b	0.029661914
17	0x3d0fd83e	0.035118334
18	0x3cb4cc0c	0.022069953
19	0x3db10a74	0.08644572
20	0x3d17bf26	0.037047528
21	0x3d109ff3	0.03530879
22	0x3c817f6e	0.015807834
23	0x3c074cad	0.008258027
24	0x3bcbbf99	0.0062179086
25	0x3c95a12b	0.018265327
26	0x3cfc177e	0.03077292
27	0xbc7645f2	-0.015031325
28	0x3c0ff17e	0.008785604
29	0xbc4087e6	-0.011751151
30	0x3b34738c	0.0027534692
31	0x3d8f27ca	0.06990011
32	0x3d2e38be	0.042534582
33	0x3cf556a1	0.029948534
34	0xbc136cf0	-0.008998141
35	0x3d5b4b59	0.053538654
36	0x3d18dc56	0.037319504
37	0x3cb2e01c	0.02183538
38	0xbc94ccc7	-0.018164052
39	0x3cc1407f	0.023590324
40	0x3c66f85e	0.014097301
41	0xbc847d7e	-0.01617312
42	0x3d44e0a6	0.048065804
43	0xb9215789	-0.00015386766
44	0x3c9cec37	0.019155605
45	0x3d2c6bb9	0.04209492
46	0xbbb9d6a9	-0.0056713414
47	0x3cc50a51	0.02405277
48	0x3aec5800	0.0018031597
49	0x3cde68c7	0.027149571
50	0x3d702b2f	0.058634933
51	0xbce854eb	-0.028360805
52	0xbbb8c7b8	-0.0056390427
53	0x3c2b1f43	0.010444465
54	0x3cc9c8c1	0.02463186
55	0x3d525fe0	0.051360965
56	0x3c9c20da	0.019058634
57	0x3ca4424b	0.020051142
58	0x3c386531	0.011254595
59	0x3d5faee2	0.05461014
60	0x3d3d0e1a	0.046156026
61	0x3d5da20d	0.05410962
62	0xbc3f95a5	-0.011693393
63	0xbd1c225a	-0.038118698
64	0x3c585cab	0.0132056875
65	0x3ce81b94	0.028333463
66	0x3ce83431	0.0283452
67	0x3d237010	0.039901793
68	0xbd9dd871	-0.077072985
69	0x3d377d4f	0.044797238
70	0xbd833e33	-0.06408348
71	0x3daf50d9	0.08560342
72	0x3c562377	0.013069979
73	0xbb2f98bb	-0.0026793915
74	0x3d8890d6	0.0666825
75	0x3d7acf9a	0.06123314
76	0x3cf629dc	0.030049257
77	0x3b929727	0.004473585
78	0x3cc7bc87	0.024381889
79	0x3c81e3ca	0.015855689
80	0x3d678340	0.056521654
81	0x3c9554e5	0.018228957
82	0xba7f8bde	-0.000974832
83	0x3b721bab	0.003694276
84	0xbc3f5f29	-0.011680403
85	0x3d569260	0.052385688
86	0x3d82085a	0.06349249
87	0x3d2a4581	0.04157019
88	0x3d36d979	0.04464099
89	0x3cb4207a	0.021988142
90	0xbcacd49e	-0.021097478
91	0x3c108d54	0.008822758
92	0x3bb9fb69	0.0056757224
93	0x3d5f7fb5	0.05456515
94	0x3cdbc355	0.02682654
95	0x3c7aba4b	0.015303205
96	0x3bedea89	0.007260625
97	0x3c84b1bf	0.016198037
98	0x3ce95c5f	0.028486429
99	0x3d29ad33	0.04142494
100	0x3d749a1d	0.059717286
101	0x3d3a0871	0.045418207
102	0xbd290ac0	-0.041270018
103	0x3d5321e5	0.051545996
104	0x3d5c0f13	0.053725313
105	0x3ce70ba4	0.028203793
106	0x3d7657ba	0.060142256
107	0x3be8844b	0.0070958487
108	0x3d5a8435	0.05334874
109	0x3d3eb771	0.046561662
110	0xbcc99f13	-0.024611985
111	0xbb1527fd	-0.002275943
112	0xbab268c9	-0.0013611551
113	0x3c3d7ea2	0.011565836
114	0x3c0a32a2	0.008434923
115	0x3d316650	0.043310463
116	0xbbafcc30	-0.005364917
117	0x3d81c530	0.06336439
118	0x3d8b3291	0.06796754
119	0xbc38f38c	-0.011288535
120	0x3c4854be	0.012227235
121	0x3b8afd19	0.0042415974
122	0x3da703f2	0.081550494
123	0x3d8e2b25	0.06941823
124	0xbbb84baf	-0.0056242566
125	0xbbff7c7d	-0.0077968226
126	0x3d321206	0.04347422
127	0x3d441292	0.047869273

network_body._body_endoder.seq_layers.2.weight f4 [128, 128]
0	0x3e1575d0	0.14595723
1	0xbccc5d8b	-0.024946949
2	0x3d848476	0.064705774
3	0x3de1fd86	0.11034684
4	0x3d2c3f35	0.042052466
5	0xbe39a58e	-0.1812956
6	0xbe0bedba	-0.13664904
7	0x3da096ac	0.078412384
8	0xbd7e6b0f	-0.062113818
9	0x3d528edf	0.051405784
10	0xbc87905d	-0.01654833
11	0x3d4d5db1	0.05013818
12	0xbe1ac2b5	-0.15113337
13	0xbd934295	-0.07190434
14	0x3d9a7dee	0.075435504
15	0xbdad98a4	-0.084763795
16	0xbc494382	-0.0122841615
17	0x3ccd1cd7	0.025038166
18	0xbca1519f	-0.01969224
19	0xbdb25818	-0.08708209
20	0xbd82886c	-0.06373677
21	0xbd9f6613	-0.07783141
22	0xbcaf4ed0	-0.021399885
23	0xbe1b8603	-0.1518784
24	0xbe06a5c5	-0.13149174
25	0x3d666e3e	0.05625748
26	0xbe41c734	-0.18923646
27	0x3c8f35f1	0.017481776
28	0xbdd5634e	-0.104193315
29	0xbdcf6945	-0.101275004
30	0xbc6bd05d	-0.014392939
31	0x3d60af7e	0.054854862
32	0x3d811a68	0.06303865
33	0x3d8d25a8	0.06891948
34	0x3d4b42aa	0.049624123
35	0xbdda9bb1	-0.10674227
36	0xbd6faf1c	-0.058516607
37	0xbdc5c446	-0.09656577
38	0xbd423eb1	-0.04742307
39	0xbab9e903	-0.0014183823
40	0xbd231661	-0.039816264
41	0xbe0ce0aa	-0.13757578
42	0x3da5e673	0.08100595
43	0xbe66c1ec	-0.22534913
44	0xbdb52f3f	-0.08846902
45	0x3e1d5cbf	0.15367411
46	0x3bb462cd	0.005504942
47	0x3a32b8ca	0.0006817697
48	0x3db514a2	0.08841826
49	0x3d1b3144	0.03788878
50	0xbd689412	-0.056781836
51	0xbd914382	-0.07092954
52	0xbd777c81	-0.06042147
53	0xbdec3e29	-0.115352936
54	0xbd5d8ff1	-0.05409235
55	0xbd68c11c	-0.05682479
56	0x3e1d6555	0.15370686
57	0x3d3bf0e8	0.045884043
58	0x3e02e23c	0.12781614
59	0x3d96aa6a	0.07356723
60	0x3d8baefc	0.06820485
61	0xbdb70961	-0.08937336
62	0xbc22069b	-0.00988927
63	0x3c831a7c	0.01600384
64	0xbc4f6cd7	-0.012660227
65	0x3d090538	0.033452243
66	0x3dc80df6	0.09768288
67	0xbd82da3c	-0.06389281
68	0x3caef580	0.021357298
69	0x3b7bb367	0.0038406493
70	0xbd82b962	-0.06383015
71	0xbe6bd675	-0.23031028
72	0xbdc8fbd5	-0.09813658
73	0x3dee1e1f	0.11626839
74	0x3e0b8ebe	0.1362867
75	0x3da45ec2	0.08025886
76	0x3bb05753	0.0053815036
77	0x3cfb4bc4	0.030675776
78	0x3dc3001c	0.09521505
79	0xbd0e4466	-0.0347332
80	0xbe34fdf4	-0.17675
81	0x3e046c3f	0.12931918
82	0x3d4f1c4e	0.050564103
83	0xbda77d18	-0.081781566
84	0x3d169ed5	0.036772568
85	0x3dbaf756	0.09129207
86	0x3dcd1cb5	0.10015241
87	0x3d13f74e	0.03612452
88	0xbc79fe0d	-0.015258324
89	0xbdf3f905	-0.11912731
90	0x3daa9456	0.08329074
91	0xbdf81736	-0.12113802
92	0x3e3effd1	0.18652274
93	0xbdc6fb9d	-0.0971596
94	0xbd20ad9f	-0.039228078
95	0xbe328d6f	-0.17436765
96	0x3e103890	0.14084077
97	0xbe3376ae	-0.17525741
98	0xbe01fe71	-0.12694718
99	0x3da562a0	0.08075452
100	0xbd857297	-0.06515997
101	0x3c83c73a	0.01608621
102	0x3daa9edc	0.08331081
103	0xbd08715e	-0.03331124
104	0x3d80cc36	0.0628895
105	0x3dba0320	0.09082627
106	0xbb1f9423	-0.002434977
107	0xbdec23d3	-0.115302704
108	0x3d6ab033	0.057296943
109	0x3e123937	0.14279638
110	0xbd6ebe16	-0.05828675
111	0x3d30a762	0.04312838
112	0xbe224a4c	-0.15848655
113	0xbc1ce937	-0.009577087
114	0xbb51f4be	-0.0032036747
115	0xbc2b9ba8	-0.010474123
116	0xbde5bca0	-0.11217618
117	0x3dbe55fc	0.09293744
118	0xbc9e91c8	-0.019356623
119	0xbd7e112c	-0.062028095
120	0xbd649af5	-0.05581184
121	0xbd61384f	-0.05498534
122	0xbd9b7453	-0.075905465
123	0xbc563255	-0.0130735235
124	0xbd968c2a	-0.07350953
125	0x3cc40c9b	0.023931792
126	0xbd8d5bbd	-0.06902263
127	0xbdd7f76b	-0.10545238
128	0x3e16255f	0.14662693
129	0x3d48e9e4	0.04905118
130	0xbcb4dcc7	-0.022077931
131	0x3cca9eb2	0.024733875
132	0xbccd3548	-0.02504982
133	0xbdc03c76	-0.09386532
134	0x3e89bedb	0.26903424
135	0x3e0dfa61	0.13865043
136	0x3d2502ce	0.040285878
137	0x3dea4a8d	0.11440001
138	0xbd2848fc	-0.04108523
139	0x3e128d09	0.14311613
140	0x3d6b2658	0.057409614
141	0x3e057ad9	0.13035144
142	0xbbba7fc8	-0.0056915022
143	0x3db49db3	0.08819141
144	0x3e3f0573	0.18654422
145	0x3d7a9c35	0.061184127
146	0xbbd6b032	-0.006551766
147	0xbe3fd706	-0.18734369
148	0x3d3d8e87	0.046278503
149	0xbd5d65bf	-0.05405211
150	0x3dcadbd7	0.099052124
151	0x3db7e540	0.08979273
152	0x3c400259	0.01171931
153	0x3da979e9	0.08275206
154	0x3d704502	0.05865956
155	0x3e156abd	0.14591499
156	0xbc81c4f9	-0.015840994
157	0x3c8f6bf0	0.017507523
158	0x3b0a5bac	0.002111177
159	0x3d93b64b	0.07212504
160	0xbcf6e7dc	-0.030139856
161	0xbd4d9d98	-0.05019912
162	0x3d289bae	0.041164093
163	0xbd319b7c	-0.043361172
164	0xbd6e25b4	-0.058141425
165	0x3e12c8a6	0.14334354
166	0x3b2b5f63	0.0026149384
167	0x3b5b85a0	0.0033496395
168	0xbd52a791	-0.051429335
169	0x3db4f8c1	0.088365085
170	0x3e52ce05	0.20586403
171	0x3ce540bd	0.027984971
172	0xbd499a0a	-0.04921917
173	0x3d5ccfa4	0.05390896
174	0x3b85ff75	0.0040892907
175	0xbc0c3cc0	-0.008559406
176	0x3e5f7e79	0.21825589
177	0x3cc9b131	0.024620624
178	0xbcc4a628	-0.02400501
179	0x3db31745	0.08744673
180	0xbb2d626a	-0.0026456364
181	0x3e29beaf	0.16576646
182	0x3d9344a1	0.07190824
183	0xbdda7d18	-0.10668391
184	0xbd15648a	-0.036472835
185	0x3d98553a	0.07438131
186	0xbe30f051	-0.17279173
187	0x3e6159cf	0.22006916
188	0xbe21fbf7	-0.15818773
189	0x3cfbd23f	0.030739902
190	0x3e09f1be	0.13471124
191	0x3da6976a	0.08134349
192	0xbda3fb32	-0.08006896
193	0xbe212360	-0.1573615
194	0xbd943aa4	-0.07237747
195	0xbd4d22fd	-0.050082196
196	0xbdd5c302	-0.104375854
197	0x3daa9e5a	0.083309844
198	0x3d02b341	0.03190923
199	0xbd3f716f	-0.046739038
200	0x3d6ff44b	0.058582585
201	0x3cd005ff	0.025393484
202	0x3cca273e	0.024676915
203	0x3af3ce55	0.001860092
204	0xbd68633a	-0.056735255
205	0xbcb2e480	-0.021837473
206	0xbc9e14da	-0.019297052
207	0xbd2fe702	-0.042944916
208	0xbcd12df8	-0.025534615
209	0xbca7d449	-0.020486968
210	0xbdc838b3	-0.097764395
211	0x3d284fbc	0.041091666
212	0x3d6aaa73	0.05729146
213	0xbc4e0961	-0.012575478
214	0xbdd186ca	-0.10230787
215	0x3d69878e	0.05701404
216	0xbd9efd3b	-0.07763144
217	0x3cee241d	0.029069955
218	0xbd845066	-0.06460647
219	0xbdd70fbb	-0.10501047
220	0x3d6e42f3	0.058169317
221	0xbe16a7dd	-0.14712472
222	0x3d6fb67a	0.058523633
223	0xbe8f3940	-0.27973366
224	0x3b5a7b1b	0.0033337537
225	0x3b79d4fd	0.0038121336
226	0x3e323b14	0.17405349
227	0x3d4edb9f	0.050502416
228	0xbde9ded8	-0.11419457
229	0xbd2ddab4	-0.0424449
230	0x3e0ce748	0.13760102
231	0x3dd07fad	0.10180602
232	0x3d970bca	0.073752955
233	0x3d1841c7	0.037172105
234	0x3df10b30	0.11769712
235	0xbe14aa83	-0.1451817
236	0xbe0cdb8b	-0.13755624
237	0x3d4ecac1	0.05048633
238	0xbca5c51d	-0.020235592
239	0x3bb0050b	0.005371695
240	0x3d5c65e4	0.053808108
241	0xbd77a99b	-0.060464483
242	0xbd362329	-0.044467125
243	0x3ca9a86c	0.020710193
244	0xbbd5a44a	-0.006519829
245	0xbd3f706d	-0.046738077
246	0xbcce8522	-0.025209967
247	0x3d63ffcb	0.055663865
248	0xbd4234dc	-0.047413692
249	0xbe2622a4	-0.16224152
250	0xbe28663b	-0.16445248
251	0xbdc4b0b6	-0.096040174
252	0x3da8844e	0.0822836
253	0x3e041ec1	0.12902357
254	0xbd670e48	-0.056410104
255	0x3e03c0b1	0.12866475

network_body._body_endoder.seq_layers.2.bias f4 [128]
0	0x3d2c9079	0.042129967
1	0xbb3c9a78	-0.0028778594
2	0x3c10310f	0.008800759
3	0x3ca850ff	0.020546434
4	0x3d0a596c	0.033776686
5	0xbc269219	-0.010166668
6	0x3c4b3368	0.012402393
7	0xbcbddbc6	-0.023176085
8	0x3d0b7a18	0.034051985
9	0x3cb1b912	0.021694694
10	0x3c8ce422	0.017198626
11	0x3d349c11	0.04409415
12	0x3b94dd4f	0.0045429836
13	0x3cd995bd	0.026560659
14	0x3d2287fd	0.03968047
15	0x394e019a	0.00019646288
16	0xbc369d7e	-0.0111459475
17	0x3d06d1c5	0.032914896
18	0x3ba65876	0.0050764633
19	0x3cf8c1b2	0.030365799
20	0x3ca5828a	0.020203847
21	0x3d0dd2ab	0.034624737
22	0x3d7a6201	0.06112862
23	0x3cc272c6	0.023736369
24	0x3c8570ce	0.016289141
25	0x3d5cb63a	0.053884722
26	0x3d8019ee	0.06254946
27	0x3d898b8f	0.06716072
28	0x3ce2eb1d	0.027700001
29	0x3d86c82a	0.06581147
30	0x3d55e357	0.05221876
31	0x3cb65c42	0.022260789
32	0x3d42517c	0.04744099
33	0x3b713a76	0.0036808527
34	0x39197984	0.00014636485
35	0xbc1a3cee	-0.009413941
36	0x3ca2f2fd	0.019891256
37	0x3d373a82	0.04473353
38	0x3c781445	0.015141551
39	0x3d4a6ddd	0.04942118
40	0xbb2fc82c	-0.0026822193
41	0x3b635951	0.0034690688
42	0x3d176ca3	0.03696884
43	0xbca0529b	-0.01957064
44	0x3d1e77fa	0.038688637
45	0x3c59b0d5	0.013286789
46	0x3cd3a7ca	0.025836844
47	0x3cda665f	0.026660142
48	0x3d887ac2	0.06664039
49	0x3d029f2a	0.031890072
50	0x3d4d64fa	0.050145127
51	0xbb580aac	-0.0032965345
52	0x3d853927	0.065050416
53	0xbc1ec11b	-0.009689595
54	0x3d5e873f	0.0543282
55	0x3d9b11e5	0.075717725
56	0x3d832014	0.06402603
57	0x3cfe875d	0.031070406
58	0x3d149b61	0.036280993
59	0x3d3bd0c3	0.045853388
60	0x3d270453	0.04077561
61	0x3c93ceca	0.01804294
62	0xbc50cd4e	-0.012744261
63	0x3bf246a4	0.007393675
64	0x3c29ffda	0.010375941
65	0x3d4c844c	0.049930856
66	0x3d392fdd	0.04521166
67	0x3d8b26d7	0.067945175
68	0xbb5eaf02	-0.0033978825
69	0x3ca5ceb4	0.020240165
70	0x3d509a7e	0.050928585
71	0x3d43f33f	0.0478394
72	0x3d153763	0.036429774
73	0x3b7fc545	0.0039027494
74	0x3ce76bb6	0.028249603
75	0x3d2c9b4f	0.0421403
76	0x3ca44dfd	0.020056719
77	0x3cddb39f	0.02706319
78	0x3c90e7c3	0.017688638
79	0x3d0ddcf7	0.034634557
80	0x3d6afadc	0.057368144
81	0x3cc61812	0.0241814
82	0x3cca192d	0.024670208
83	0x3cf83846	0.03030027
84	0x3bf032d3	0.0073302775
85	0x3ca7d302	0.020486359
86	0xbbb6a11f	-0.0055734063
87	0x3d9753f4	0.0738906
88	0x3d844ebb	0.06460329
89	0xbc5c7629	-0.013455906
90	0x3c113e25	0.008864914
91	0x3c20a4c5	0.009804909
92	0x3c1b342b	0.009472887
93	0x3cd14330	0.025544733
94	0x3a80d5c3	0.0009829331
95	0x3da6024f	0.08105909
96	0x3cac210a	0.021011848
97	0x3c3bd7f8	0.011465065
98	0x3998de64	0.00029157393
99	0x3baca1d4	0.005268315
100	0x3c8a2daa	0.016867477
101	0x3d425b2e	0.047450237
102	0x3cd9eada	0.026601244
103	0x3d252ee4	0.04032792
104	0x3b199c62	0.0023439159
105	0x3cac2805	0.021015177
106	0x3bbc54ba	0.005747405
107	0x3d16cca6	0.03681626
108	0x3bfdad66	0.007741618
109	0x3c2ac5a6	0.0104231
110	0x3a70def6	0.0009188497
111	0x3b4fe9eb	0.003172512
112	0x3cb1ec75	0.021719197
113	0x3cacbafd	0.021085257
114	0xbbc50b9e	-0.006013348
115	0xbbdafd33	-0.0066830157
116	0x3ceb3023	0.028709477
117	0x3d815d4d	0.06316624
118	0x3ca32127	0.01991327
119	0x3ca5b646	0.020228516
120	0x3d37c15d	0.04486214
121	0x3d3bf3cc	0.0458868
122	0x3d293780	0.041312695
123	0x3c5ddf60	0.013542026
124	0x3c466a45	0.012110298
125	0x3ce9755f	0.02849835
126	0x3b951127	0.004549164
127	0x3ca46dd4	0.020071901

action_model._continuous_distribution.log_sigma f4 [1, 2]
0	0xbad645c2	-0.0016347694
1	0xbb89c8f3	-0.004204863

action_model._continuous_distribution.mu.weight f4 [2, 128]
0	0x3db1bddc	0.08678791
1	0xbb30c7c1	-0.0026974531
2	0x3d0b9bf3	0.03408427
3	0xbcb0adfd	-0.02156734
4	0x3cefe5a6	0.02928431
5	0x37a61604	1.9798994e-05
6	0x3d04ac5a	0.03239093
7	0x3ac1ac98	0.0014776168
8	0xbd02a315	-0.03189381
9	0x3ccf55ef	0.025309531
10	0xbd003b52	-0.031306572
11	0xbc6fabd7	-0.014628372
12	0x3cf20b8a	0.029546518
13	0xbcafb699	-0.021449374
14	0x3c8e1076	0.017341834
15	0xbd35b4f8	-0.04436204
16	0xbcc5f974	-0.0241668
17	0x3d5e0137	0.054200377
18	0x3cb4f788	0.022090688
19	0xbcde45f1	-0.02713296
20	0x3d37ed13	0.044903826
21	0xbd7cce2d	-0.061720062
22	0xbcf85750	-0.030315071
23	0xbd16f423	-0.03685392
24	0x3d4712bc	0.04860185
25	0x3d5e1511	0.05421931
26	0x3da4a1c1	0.080386646
27	0xbd0d00c0	-0.034424543
28	0xbd9e8bd2	-0.07741512
29	0x3c6ea86b	0.014566521
30	0x3cbc7a53	0.023007547
31	0xbd591669	-0.052999888
32	0xbd27f13e	-0.04100155
33	0x3d110697	0.035406675
34	0xbc38b0fa	-0.011272663
35	0xbcd915db	-0.02649968
36	0xbc74b9ff	-0.014936923
37	0xbc815d2e	-0.015791502
38	0x3d77d62b	0.06050698
39	0xbd10abbd	-0.035320032
40	0x3d0ccdc9	0.03437594
41	0xbadb4a6a	-0.0016730551
42	0xbd2d5d70	-0.042325437
43	0x3c62588e	0.013815058
44	0x3cd412ac	0.02588781
45	0xbcec6d53	-0.028860724
46	0x3c4a9995	0.012365718
47	0xbd292544	-0.041295305
48	0x3d8e8df7	0.069606714
49	0x3d4654c4	0.048420683
50	0xbd54d089	-0.051956687
51	0xbcadd7d4	-0.021221079
52	0xbd47a255	-0.048738796
53	0xbc6d3fc8	-0.014480539
54	0x3d959ecb	0.07305678
55	0xbd11980a	-0.035545386
56	0x3c6d754c	0.014493298
57	0x3d870be0	0.06594062
58	0xbd86a8be	-0.06575154
59	0xbd71cf34	-0.059035495
60	0x3d642c00	0.055706024
61	0xbd3dabb9	-0.046306346
62	0x3cbc8fc5	0.023017773
63	0x3ce652e6	0.0281157
64	0xbaf8126f	-0.0018926392
65	0xbc9348b0	-0.017978996
66	0x3db8ce7f	0.09023761
67	0xbd3fc947	-0.046822812
68	0x3c9c546d	0.019083226
69	0xbc90a03f	-0.017654536
70	0xbc604efa	-0.0136907045
71	0x3da64597	0.08118742
72	0x3c23e321	0.010002882
73	0xbd537151	-0.05162174
74	0x3d8735e1	0.066020735
75	0x3d5dd7fe	0.054161064
76	0x3d4d7afa	0.050166108
77	0x3d2ae76b	0.041724604
78	0x3d3a0b25	0.045420785
79	0x3cdde32b	0.027085861
80	0x3da0ac1a	0.07845326
81	0x3d4294e2	0.047505267
82	0xbd82440b	-0.063606344
83	0x3ae1ce26	0.0017227575
84	0x3c083dcf	0.008315518
85	0x3d998c3c	0.07497451
86	0x3cad745b	0.021173647
87	0x3b5058bf	0.0031791178
88	0x3cf35f2d	0.02970847
89	0x3ac757bc	0.0015208642
90	0x3d00976b	0.031394403
91	0x3d0191af	0.031633075
92	0x3cc7bd9e	0.024382409
93	0xba53e3ed	-0.0008082975
94	0x3b4769aa	0.003042797
95	0xbb4f15a8	-0.0031598601
96	0xbc8aa0b5	-0.016922334
97	0x3d1ff6fd	0.039053906
98	0xbcf51a0e	-0.02991965
99	0x3d197a24	0.037469998
100	0xbcd07339	-0.025445567
101	0xb9588156	-0.00020647547
102	0x3da407db	0.08009311
103	0xbd8a77dd	-0.06761143
104	0xbd4d8647	-0.050176885
105	0xbd39d700	-0.045371056
106	0xbc9dc590	-0.019259244
107	0x3da69638	0.08134121
108	0xbce8cb19	-0.028417157
109	0xbd083b46	-0.033259653
110	0x3d459af3	0.048243474
111	0xbc8ca318	-0.017167613
112	0x3d0072a8	0.031359345
113	0x3cb06132	0.021530721
114	0xbc8a6f90	-0.0168989
115	0xbbb03f23	-0.0053786202
116	0xbcc06872	-0.023487303
117	0x3dd110d9	0.102082916
118	0xbd14debd	-0.036345232
119	0x3cb4782b	0.022029957
120	0x3ca1b3a1	0.019738974
121	0xbce78735	-0.028262714
122	0x3d34b750	0.044120133
123	0x3d359bd4	0.044338062
124	0x3ac078e4	0.0014684466
125	0xbd0da047	-0.03457668
126	0x3cce8e80	0.025214434
127	0xbd1fa971	-0.03897995
128	0x3d04f723	0.03246225
129	0x3ca77fd5	0.020446697
130	0xbc9037b9	-0.017604696
131	0x3d64e398	0.055881113
132	0xbd332369	-0.04373494
133	0x3ca208d0	0.019779593
134	0x3c4e0d24	0.012576375
135	0x3caab822	0.020839754
136	0x3d594af1	0.053049985
137	0x3dab19b1	0.083545096
138	0x3d452113	0.048127245
139	0x3d32a165	0.04361095
140	0xbce7a8c8	-0.028278723
141	0xbc9d7f4c	-0.019225739
142	0x3db4284f	0.08796751
143	0x3d3b2c13	0.04569633
144	0x3d2305ba	0.039800383
145	0xbc7702f1	-0.015076385
146	0x3b3a162a	0.0028394558
147	0xbd83e713	-0.06440558
148	0x3d80b0e3	0.062837385
149	0x3c6b3377	0.014355532
150	0xbcce26f3	-0.025165057
151	0xbc976433	-0.018480396
152	0xbcb464f9	-0.022020804
153	0xbcf29207	-0.029610647
154	0x3bee7b5e	0.00727789
155	0xbd8a7823	-0.067611955
156	0x3d23c3a6	0.039981507
157	0xbd58b14e	-0.052903466
158	0xbd86d496	-0.06583516
159	0xbc25a056	-0.010109028
160	0xbd42e208	-0.04757884
161	0x3ace22e7	0.0015726954
162	0xbcbb4c47	-0.02286352
163	0xbc0f147f	-0.008732914
164	0xbc2204a7	-0.0098888045
165	0x3d8e3b92	0.06944956
166	0x3d39a755	0.045325596
167	0xbd18a620	-0.037267804
168	0x3c935172	0.017983172
169	0x3d22cb0a	0.039744414
170	0x3d2ab978	0.041680783
171	0x3c572296	0.0131308045
172	0xbd8d652d	-0.069040634
173	0x3c2c11c0	0.010502279
174	0xbd10cc20	-0.03535092
175	0xbd039e37	-0.032133307
176	0x3c8c9c53	0.017164385
177	0xbd1c6dbc	-0.03819059
178	0xbc792075	-0.015205492
179	0x3ca65d2b	0.020308098
180	0xbd5f7789	-0.054557357
181	0xbba4fc28	-0.005034942
182	0xbd8175bf	-0.063212864
183	0xbdcdc9e3	-0.100482725
184	0xbd461655	-0.04836114
185	0x3bc0e9d4	0.0058872495
186	0x3d0177ff	0.031608578
187	0x3d45d703	0.048300754
188	0xbcd90911	-0.026493581
189	0x3be323fd	0.0069317804
190	0x3d52d26f	0.051470216
191	0x3d09f4e0	0.033680797
192	0x3d9476bc	0.07249209
193	0xbd613498	-0.054981798
194	0x3d6649aa	0.056222595
195	0xbcebf053	-0.028801119
196	0x3cecfe1f	0.028929768
197	0x3d59df2b	0.053191345
198	0xbd6953ab	-0.056964558
199	0xbcb46662	-0.022021476
200	0xbcdea33d	-0.027177447
201	0xbc5732dd	-0.013134685
202	0xbc08cf5a	-0.008350218
203	0xbcadbefd	-0.021209234
204	0x3c7cf5c9	0.015439459
205	0xbd283150	-0.041062653
206	0x3d34d8eb	0.04415218
207	0xbd4b83e6	-0.049686335
208	0xbcbed618	-0.023295447
209	0x3d8130dd	0.06308148
210	0x3cb6ec73	0.022329545
211	0xbd298c78	-0.041393727
212	0xbc4674b9	-0.01211279
213	0x3d0ebf46	0.03485038
214	0x3cd8d4b9	0.026468622
215	0xbd9d7f2b	-0.07690271
216	0xbd91cd58	-0.07119244
217	0x3baa2169	0.005191971
218	0x3c9d183e	0.019176599
219	0x3d10da23	0.03536428
220	0xbce3f3df	-0.027826248
221	0xbd11f19c	-0.035630807
222	0xbc074129	-0.0082552815
223	0xbd7ea339	-0.06216738
224	0x3d8efd84	0.06981948
225	0xbc540441	-0.012940467
226	0x3d819980	0.06328106
227	0x3d95656b	0.072947346
228	0xbc23f75f	-0.010007708
229	0xbd0adaab	-0.033899944
230	0x3c27d824	0.010244403
231	0x39b9ad9d	0.00035415302
232	0x3d590fd8	0.052993625
233	0xbb07aabd	-0.0020701133
234	0x3c1e9f9b	0.009681608
235	0xbd15e16a	-0.036591925
236	0xbaac3330	-0.0013137814
237	0xbc29b71e	-0.0103586
238	0x3b8f573c	0.004374413
239	0xbc821d1c	-0.015883021
240	0x3cbfde8b	0.023421546
241	0xbc97956b	-0.018503865
242	0x3cb70231	0.022339912
243	0x3d26af6a	0.04069463
244	0xbc5c027b	-0.013428326
245	0x3b65817b	0.0035019803
246	0x3d30a642	0.043127306
247	0xbc4acd85	-0.012378101
248	0xbd487534	-0.0489399
249	0xbd56b652	-0.052419968
250	0xbc29b818	-0.010358833
251	0x3d03e580	0.03220129
252	0x3d324d32	0.04353065
253	0xbd094f6c	-0.03352301
254	0xbca0bf1c	-0.019622378
255	0x3c264367	0.010147906

action_model._continuous_distribution.mu.bias f4 [2]
0	0xbb1eb81b	-0.0024218622
1	0xbcac07dc	-0.020999841
